…
#: ../../source/user_guide/notebooks/Audio-load_audio_model_nn.ipynb:-1
#: 9c2f500490704b7ebe9044e066fc15ba
msgid "_b5.audio_model_nn_.summary()"
msgstr ""

#: ../../source/user_guide/notebooks/Audio-load_audio_model_nn.ipynb:232
#: d370c077a34f4c71885dfb6d210d10bf
msgid ""
"<pre>\n"
"Model: &#34;model_1&#34;\n"
"_________________________________________________________________\n"
" Layer (type)                Output Shape              Param #\n"
"=================================================================\n"
" input_1 (InputLayer)        [(None, 224, 224, 3)]     0\n"
"\n"
" block1_conv1 (Conv2D)       (None, 224, 224, 64)      1792\n"
"\n"
" block1_conv2 (Conv2D)       (None, 224, 224, 64)      36928\n"
"\n"
" block1_pool (MaxPooling2D)  (None, 112, 112, 64)      0\n"
"\n"
" block2_conv1 (Conv2D)       (None, 112, 112, 128)     73856\n"
"\n"
" block2_conv2 (Conv2D)       (None, 112, 112, 128)     147584\n"
"\n"
" block2_pool (MaxPooling2D)  (None, 56, 56, 128)       0\n"
"\n"
" block3_conv1 (Conv2D)       (None, 56, 56, 256)       295168\n"
"\n"
" block3_conv2 (Conv2D)       (None, 56, 56, 256)       590080\n"
"\n"
" block3_conv3 (Conv2D)       (None, 56, 56, 256)       590080\n"
"\n"
" block3_pool (MaxPooling2D)  (None, 28, 28, 256)       0\n"
"\n"
" block4_conv1 (Conv2D)       (None, 28, 28, 512)       1180160\n"
"\n"
" block4_conv2 (Conv2D)       (None, 28, 28, 512)       2359808\n"
"\n"
" block4_conv3 (Conv2D)       (None, 28, 28, 512)       2359808\n"
"\n"
" block4_pool (MaxPooling2D)  (None, 14, 14, 512)       0\n"
"\n"
" block5_conv1 (Conv2D)       (None, 14, 14, 512)       2359808\n"
"\n"
" block5_conv2 (Conv2D)       (None, 14, 14, 512)       2359808\n"
"\n"
" block5_conv3 (Conv2D)       (None, 14, 14, 512)       2359808\n"
"\n"
" block5_pool (MaxPooling2D)  (None, 7, 7, 512)         0\n"
"\n"
" flatten (Flatten)           (None, 25088)             0\n"
"\n"
" dense (Dense)               (None, 512)               12845568\n"
"\n"
" dropout (Dropout)           (None, 512)               0\n"
"\n"
" dense_256 (Dense)           (None, 256)               131328\n"
"\n"
" dense_1 (Dense)             (None, 5)                 1285\n"
"\n"
"=================================================================\n"
"Total params: 27,692,869\n"
"Trainable params: 27,692,869\n"
"Non-trainable params: 0\n"
"_________________________________________________________________\n"
"</pre>"
msgstr ""

#: ../../source/user_guide/notebooks/Audio-load_audio_model_nn.ipynb:294
#: 3b0a8d921f004046b14fffee17b872fe
msgid ""
"\\begin{sphinxVerbatim}[commandchars=\\\\\\{\\}]\n"
"Model: \"model\\_1\"\n"
"\\_\\_\\_\\_\\_\\_\\_\\_\\_\\_\\_\\_\\_\\_\\_\\_\\_\\_\\_\\_\\_\\_\\_\\_\\_\\_\\_\\_\\_\\_\\_\\_\\_\\_\\_\\_\\_\\_\\_\\_\\_\\_\\_\\_\\_\\_\\_\\_\\_\\_\\_\\_\\_\\_\\_\\_\\_\\_\\_\\_\\_\\_\\_\\_\\_"
"\n"
" Layer (type)                Output Shape              Param \\#\n"
"=================================================================\n"
" input\\_1 (InputLayer)        [(None, 224, 224, 3)]     0\n"
"\n"
" block1\\_conv1 (Conv2D)       (None, 224, 224, 64)      1792\n"
"\n"
" block1\\_conv2 (Conv2D)       (None, 224, 224, 64)      36928\n"
"\n"
" block1\\_pool (MaxPooling2D)  (None, 112, 112, 64)      0\n"
"\n"
" block2\\_conv1 (Conv2D)       (None, 112, 112, 128)     73856\n"
"\n"
" block2\\_conv2 (Conv2D)       (None, 112, 112, 128)     147584\n"
"\n"
" block2\\_pool (MaxPooling2D)  (None, 56, 56, 128)       0\n"
"\n"
" block3\\_conv1 (Conv2D)       (None, 56, 56, 256)       295168\n"
"\n"
" block3\\_conv2 (Conv2D)       (None, 56, 56, 256)       590080\n"
"\n"
" block3\\_conv3 (Conv2D)       (None, 56, 56, 256)       590080\n"
"\n"
" block3\\_pool (MaxPooling2D)  (None, 28, 28, 256)       0\n"
"\n"
" block4\\_conv1 (Conv2D)       (None, 28, 28, 512)       1180160\n"
"\n"
" block4\\_conv2 (Conv2D)       (None, 28, 28, 512)       2359808\n"
"\n"
" block4\\_conv3 (Conv2D)       (None, 28, 28, 512)       2359808\n"
"\n"
" block4\\_pool (MaxPooling2D)  (None, 14, 14, 512)       0\n"
"\n"
" block5\\_conv1 (Conv2D)       (None, 14, 14, 512)       2359808\n"
"\n"
" block5\\_conv2 (Conv2D)       (None, 14, 14, 512)       2359808\n"
"\n"
" block5\\_conv3 (Conv2D)       (None, 14, 14, 512)       2359808\n"
"\n"
" block5\\_pool (MaxPooling2D)  (None, 7, 7, 512)         0\n"
"\n"
" flatten (Flatten)           (None, 25088)             0\n"
"\n"
" dense (Dense)               (None, 512)               12845568\n"
"\n"
" dropout (Dropout)           (None, 512)               0\n"
"\n"
" dense\\_256 (Dense)           (None, 256)               131328\n"
"\n"
" dense\\_1 (Dense)             (None, 5)                 1285\n"
"\n"
"=================================================================\n"
"Total params: 27,692,869\n"
"Trainable params: 27,692,869\n"
"Non-trainable params: 0\n"
"\\_\\_\\_\\_\\_\\_\\_\\_\\_\\_\\_\\_\\_\\_\\_\\_\\_\\_\\_\\_\\_\\_\\_\\_\\_\\_\\_\\_\\_\\_\\_\\_\\_\\_\\_\\_\\_\\_\\_\\_\\_\\_\\_\\_\\_\\_\\_\\_\\_\\_\\_\\_\\_\\_\\_\\_\\_\\_\\_\\_\\_\\_\\_\\_\\_"
"\n"
"\\end{sphinxVerbatim}"
msgstr ""

#: ../../source/user_guide/notebooks/Audio-load_audio_model_nn.ipynb:357
#: b0bc62669fe6439f825d8caeae43d55a
msgid ""
"Model: \"model_1\"\n"
"_________________________________________________________________\n"
" Layer (type)                Output Shape              Param #\n"
"=================================================================\n"
" input_1 (InputLayer)        [(None, 224, 224, 3)]     0\n"
"\n"
" block1_conv1 (Conv2D)       (None, 224, 224, 64)      1792\n"
"\n"
" block1_conv2 (Conv2D)       (None, 224, 224, 64)      36928\n"
"\n"
" block1_pool (MaxPooling2D)  (None, 112, 112, 64)      0\n"
"\n"
" block2_conv1 (Conv2D)       (None, 112, 112, 128)     73856\n"
"\n"
" block2_conv2 (Conv2D)       (None, 112, 112, 128)     147584\n"
"\n"
" block2_pool (MaxPooling2D)  (None, 56, 56, 128)       0\n"
"\n"
" block3_conv1 (Conv2D)       (None, 56, 56, 256)       295168\n"
"\n"
" block3_conv2 (Conv2D)       (None, 56, 56, 256)       590080\n"
"\n"
" block3_conv3 (Conv2D)       (None, 56, 56, 256)       590080\n"
"\n"
" block3_pool (MaxPooling2D)  (None, 28, 28, 256)       0\n"
"\n"
" block4_conv1 (Conv2D)       (None, 28, 28, 512)       1180160\n"
"\n"
" block4_conv2 (Conv2D)       (None, 28, 28, 512)       2359808\n"
"\n"
" block4_conv3 (Conv2D)       (None, 28, 28, 512)       2359808\n"
"\n"
" block4_pool (MaxPooling2D)  (None, 14, 14, 512)       0\n"
"\n"
" block5_conv1 (Conv2D)       (None, 14, 14, 512)       2359808\n"
"\n"
" block5_conv2 (Conv2D)       (None, 14, 14, 512)       2359808\n"
"\n"
" block5_conv3 (Conv2D)       (None, 14, 14, 512)       2359808\n"
"\n"
" block5_pool (MaxPooling2D)  (None, 7, 7, 512)         0\n"
"\n"
" flatten (Flatten)           (None, 25088)             0\n"
"\n"
" dense (Dense)               (None, 512)               12845568\n"
"\n"
" dropout (Dropout)           (None, 512)               0\n"
"\n"
" dense_256 (Dense)           (None, 256)               131328\n"
"\n"
" dense_1 (Dense)             (None, 5)                 1285\n"
"\n"
"=================================================================\n"
"Total params: 27,692,869\n"
"Trainable params: 27,692,869\n"
"Non-trainable params: 0\n"
"_________________________________________________________________"
msgstr ""
