…
#: ../../source/user_guide/notebooks/Audio-load_audio_model_hc.ipynb:-1
#: af0114f837764a2dbf61d035388a81b6
msgid "_b5.audio_model_hc_.summary()"
msgstr ""

#: ../../source/user_guide/notebooks/Audio-load_audio_model_hc.ipynb:257
#: 6ef391a014ab4d5c9136d743b332db3f
msgid ""
"<pre>\n"
"Model: &#34;model&#34;\n"
"_________________________________________________________________\n"
" Layer (type)                Output Shape              Param #\n"
"=================================================================\n"
" input_1 (InputLayer)        [(None, 196, 25)]         0\n"
"\n"
" lstm (LSTM)                 (None, 196, 64)           23040\n"
"\n"
" dropout (Dropout)           (None, 196, 64)           0\n"
"\n"
" lstm_1 (LSTM)               (None, 128)               98816\n"
"\n"
" dropout_1 (Dropout)         (None, 128)               0\n"
"\n"
" dense (Dense)               (None, 5)                 645\n"
"\n"
"=================================================================\n"
"Total params: 122,501\n"
"Trainable params: 122,501\n"
"Non-trainable params: 0\n"
"_________________________________________________________________\n"
"</pre>"
msgstr ""

#: ../../source/user_guide/notebooks/Audio-load_audio_model_hc.ipynb:283
#: 214700360a194a4a84ccd5c9c729ca5b
msgid ""
"\\begin{sphinxVerbatim}[commandchars=\\\\\\{\\}]\n"
"Model: \"model\"\n"
"\\_\\_\\_\\_\\_\\_\\_\\_\\_\\_\\_\\_\\_\\_\\_\\_\\_\\_\\_\\_\\_\\_\\_\\_\\_\\_\\_\\_\\_\\_\\_\\_\\_\\_\\_\\_\\_\\_\\_\\_\\_\\_\\_\\_\\_\\_\\_\\_\\_\\_\\_\\_\\_\\_\\_\\_\\_\\_\\_\\_\\_\\_\\_\\_\\_"
"\n"
" Layer (type)                Output Shape              Param \\#\n"
"=================================================================\n"
" input\\_1 (InputLayer)        [(None, 196, 25)]         0\n"
"\n"
" lstm (LSTM)                 (None, 196, 64)           23040\n"
"\n"
" dropout (Dropout)           (None, 196, 64)           0\n"
"\n"
" lstm\\_1 (LSTM)               (None, 128)               98816\n"
"\n"
" dropout\\_1 (Dropout)         (None, 128)               0\n"
"\n"
" dense (Dense)               (None, 5)                 645\n"
"\n"
"=================================================================\n"
"Total params: 122,501\n"
"Trainable params: 122,501\n"
"Non-trainable params: 0\n"
"\\_\\_\\_\\_\\_\\_\\_\\_\\_\\_\\_\\_\\_\\_\\_\\_\\_\\_\\_\\_\\_\\_\\_\\_\\_\\_\\_\\_\\_\\_\\_\\_\\_\\_\\_\\_\\_\\_\\_\\_\\_\\_\\_\\_\\_\\_\\_\\_\\_\\_\\_\\_\\_\\_\\_\\_\\_\\_\\_\\_\\_\\_\\_\\_\\_"
"\n"
"\\end{sphinxVerbatim}"
msgstr ""

#: ../../source/user_guide/notebooks/Audio-load_audio_model_hc.ipynb:310
#: a178a48c8daa4117bc440dffb668c264
msgid ""
"Model: \"model\"\n"
"_________________________________________________________________\n"
" Layer (type)                Output Shape              Param #\n"
"=================================================================\n"
" input_1 (InputLayer)        [(None, 196, 25)]         0\n"
"\n"
" lstm (LSTM)                 (None, 196, 64)           23040\n"
"\n"
" dropout (Dropout)           (None, 196, 64)           0\n"
"\n"
" lstm_1 (LSTM)               (None, 128)               98816\n"
"\n"
" dropout_1 (Dropout)         (None, 128)               0\n"
"\n"
" dense (Dense)               (None, 5)                 645\n"
"\n"
"=================================================================\n"
"Total params: 122,501\n"
"Trainable params: 122,501\n"
"Non-trainable params: 0\n"
"_________________________________________________________________"
msgstr ""
