…
"=================================================================================================="
"\n"
" input_1 (InputLayer)           [(None, 224, 224, 3  0           []\n"
"                                )]\n"
"\n"
" conv1/7x7_s2 (Conv2D)          (None, 112, 112, 64  9408        "
"[&#39;input_1[0][0]&#39;]\n"
"                                )\n"
"\n"
" conv1/7x7_s2/bn (BatchNormaliz  (None, 112, 112, 64  256        "
"[&#39;conv1/7x7_s2[0][0]&#39;]\n"
" ation)                         )\n"
"\n"
" activation (Activation)        (None, 112, 112, 64  0           "
"[&#39;conv1/7x7_s2/bn[0][0]&#39;]\n"
"                                )\n"
"\n"
" max_pooling2d (MaxPooling2D)   (None, 55, 55, 64)   0           "
"[&#39;activation[0][0]&#39;]\n"
"\n"
" conv2_1_1x1_reduce (Conv2D)    (None, 55, 55, 64)   4096        "
"[&#39;max_pooling2d[0][0]&#39;]\n"
"\n"
" conv2_1_1x1_reduce/bn (BatchNo  (None, 55, 55, 64)  256         "
"[&#39;conv2_1_1x1_reduce[0][0]&#39;]\n"
" rmalization)\n"
"\n"
" activation_1 (Activation)      (None, 55, 55, 64)   0           "
"[&#39;conv2_1_1x1_reduce/bn[0][0]&#39;]\n"
"\n"
" conv2_1_3x3 (Conv2D)           (None, 55, 55, 64)   36864       "
"[&#39;activation_1[0][0]&#39;]\n"
"\n"
" conv2_1_3x3/bn (BatchNormaliza  (None, 55, 55, 64)  256         "
"[&#39;conv2_1_3x3[0][0]&#39;]\n"
" tion)\n"
"\n"
" activation_2 (Activation)      (None, 55, 55, 64)   0           "
"[&#39;conv2_1_3x3/bn[0][0]&#39;]\n"
"\n"
" conv2_1_1x1_increase (Conv2D)  (None, 55, 55, 256)  16384       "
"[&#39;activation_2[0][0]&#39;]\n"
"\n"
" conv2_1_1x1_proj (Conv2D)      (None, 55, 55, 256)  16384       "
"[&#39;max_pooling2d[0][0]&#39;]\n"
"\n"
" conv2_1_1x1_increase/bn (Batch  (None, 55, 55, 256)  1024       "
"[&#39;conv2_1_1x1_increase[0][0]&#39;]\n"
" Normalization)\n"
"\n"
" conv2_1_1x1_proj/bn (BatchNorm  (None, 55, 55, 256)  1024       "
"[&#39;conv2_1_1x1_proj[0][0]&#39;]\n"
" alization)\n"
"\n"
" add (Add)                      (None, 55, 55, 256)  0           "
"[&#39;conv2_1_1x1_increase/bn[0][0]&#39;,\n"
"                                                                  "
"&#39;conv2_1_1x1_proj/bn[0][0]&#39;]\n"
"\n"
" activation_3 (Activation)      (None, 55, 55, 256)  0           "
"[&#39;add[0][0]&#39;]\n"
"\n"
" conv2_2_1x1_reduce (Conv2D)    (None, 55, 55, 64)   16384       "
"[&#39;activation_3[0][0]&#39;]\n"
"\n"
" conv2_2_1x1_reduce/bn (BatchNo  (None, 55, 55, 64)  256         "
"[&#39;conv2_2_1x1_reduce[0][0]&#39;]\n"
" rmalization)\n"
"\n"
" activation_4 (Activation)      (None, 55, 55, 64)   0           "
"[&#39;conv2_2_1x1_reduce/bn[0][0]&#39;]\n"
"\n"
" conv2_2_3x3 (Conv2D)           (None, 55, 55, 64)   36864       "
"[&#39;activation_4[0][0]&#39;]\n"
"\n"
" conv2_2_3x3/bn (BatchNormaliza  (None, 55, 55, 64)  256         "
"[&#39;conv2_2_3x3[0][0]&#39;]\n"
" tion)\n"
"\n"
" activation_5 (Activation)      (None, 55, 55, 64)   0           "
"[&#39;conv2_2_3x3/bn[0][0]&#39;]\n"
"\n"
" conv2_2_1x1_increase (Conv2D)  (None, 55, 55, 256)  16384       "
"[&#39;activation_5[0][0]&#39;]\n"
"\n"
" conv2_2_1x1_increase/bn (Batch  (None, 55, 55, 256)  1024       "
"[&#39;conv2_2_1x1_increase[0][0]&#39;]\n"
" Normalization)\n"
"\n"
" add_1 (Add)                    (None, 55, 55, 256)  0           "
"[&#39;conv2_2_1x1_increase/bn[0][0]&#39;,\n"
"                                                                  "
"&#39;activation_3[0][0]&#39;]\n"
"\n"
" activation_6 (Activation)      (None, 55, 55, 256)  0           "
"[&#39;add_1[0][0]&#39;]\n"
"\n"
" conv2_3_1x1_reduce (Conv2D)    (None, 55, 55, 64)   16384       "
"[&#39;activation_6[0][0]&#39;]\n"
"\n"
" conv2_3_1x1_reduce/bn (BatchNo  (None, 55, 55, 64)  256         "
"[&#39;conv2_3_1x1_reduce[0][0]&#39;]\n"
" rmalization)\n"
"\n"
" activation_7 (Activation)      (None, 55, 55, 64)   0           "
"[&#39;conv2_3_1x1_reduce/bn[0][0]&#39;]\n"
"\n"
" conv2_3_3x3 (Conv2D)           (None, 55, 55, 64)   36864       "
"[&#39;activation_7[0][0]&#39;]\n"
"\n"
" conv2_3_3x3/bn (BatchNormaliza  (None, 55, 55, 64)  256         "
"[&#39;conv2_3_3x3[0][0]&#39;]\n"
" tion)\n"
"\n"
" activation_8 (Activation)      (None, 55, 55, 64)   0           "
"[&#39;conv2_3_3x3/bn[0][0]&#39;]\n"
"\n"
" conv2_3_1x1_increase (Conv2D)  (None, 55, 55, 256)  16384       "
"[&#39;activation_8[0][0]&#39;]\n"
"\n"
" conv2_3_1x1_increase/bn (Batch  (None, 55, 55, 256)  1024       "
"[&#39;conv2_3_1x1_increase[0][0]&#39;]\n"
" Normalization)\n"
"\n"
" add_2 (Add)                    (None, 55, 55, 256)  0           "
"[&#39;conv2_3_1x1_increase/bn[0][0]&#39;,\n"
"                                                                  "
"&#39;activation_6[0][0]&#39;]\n"
"\n"
" activation_9 (Activation)      (None, 55, 55, 256)  0           "
"[&#39;add_2[0][0]&#39;]\n"
"\n"
" conv3_1_1x1_reduce (Conv2D)    (None, 28, 28, 128)  32768       "
"[&#39;activation_9[0][0]&#39;]\n"
"\n"
" conv3_1_1x1_reduce/bn (BatchNo  (None, 28, 28, 128)  512        "
"[&#39;conv3_1_1x1_reduce[0][0]&#39;]\n"
" rmalization)\n"
"\n"
" activation_10 (Activation)     (None, 28, 28, 128)  0           "
"[&#39;conv3_1_1x1_reduce/bn[0][0]&#39;]\n"
"\n"
" conv3_1_3x3 (Conv2D)           (None, 28, 28, 128)  147456      "
"[&#39;activation_10[0][0]&#39;]\n"
"\n"
" conv3_1_3x3/bn (BatchNormaliza  (None, 28, 28, 128)  512        "
"[&#39;conv3_1_3x3[0][0]&#39;]\n"
" tion)\n"
"\n"
" activation_11 (Activation)     (None, 28, 28, 128)  0           "
"[&#39;conv3_1_3x3/bn[0][0]&#39;]\n"
"\n"
" conv3_1_1x1_increase (Conv2D)  (None, 28, 28, 512)  65536       "
"[&#39;activation_11[0][0]&#39;]\n"
"\n"
" conv3_1_1x1_proj (Conv2D)      (None, 28, 28, 512)  131072      "
"[&#39;activation_9[0][0]&#39;]\n"
"\n"
" conv3_1_1x1_increase/bn (Batch  (None, 28, 28, 512)  2048       "
"[&#39;conv3_1_1x1_increase[0][0]&#39;]\n"
" Normalization)\n"
"\n"
" conv3_1_1x1_proj/bn (BatchNorm  (None, 28, 28, 512)  2048       "
"[&#39;conv3_1_1x1_proj[0][0]&#39;]\n"
" alization)\n"
"\n"
" add_3 (Add)                    (None, 28, 28, 512)  0           "
"[&#39;conv3_1_1x1_increase/bn[0][0]&#39;,\n"
"                                                                  "
"&#39;conv3_1_1x1_proj/bn[0][0]&#39;]\n"
"\n"
" activation_12 (Activation)     (None, 28, 28, 512)  0           "
"[&#39;add_3[0][0]&#39;]\n"
"\n"
" conv3_2_1x1_reduce (Conv2D)    (None, 28, 28, 128)  65536       "
"[&#39;activation_12[0][0]&#39;]\n"
"\n"
" conv3_2_1x1_reduce/bn (BatchNo  (None, 28, 28, 128)  512        "
"[&#39;conv3_2_1x1_reduce[0][0]&#39;]\n"
" rmalization)\n"
"\n"
" activation_13 (Activation)     (None, 28, 28, 128)  0           "
"[&#39;conv3_2_1x1_reduce/bn[0][0]&#39;]\n"
"\n"
" conv3_2_3x3 (Conv2D)           (None, 28, 28, 128)  147456      "
"[&#39;activation_13[0][0]&#39;]\n"
"\n"
" conv3_2_3x3/bn (BatchNormaliza  (None, 28, 28, 128)  512        "
"[&#39;conv3_2_3x3[0][0]&#39;]\n"
" tion)\n"
"\n"
" activation_14 (Activation)     (None, 28, 28, 128)  0           "
"[&#39;conv3_2_3x3/bn[0][0]&#39;]\n"
"\n"
" conv3_2_1x1_increase (Conv2D)  (None, 28, 28, 512)  65536       "
"[&#39;activation_14[0][0]&#39;]\n"
"\n"
" conv3_2_1x1_increase/bn (Batch  (None, 28, 28, 512)  2048       "
"[&#39;conv3_2_1x1_increase[0][0]&#39;]\n"
" Normalization)\n"
"\n"
" add_4 (Add)                    (None, 28, 28, 512)  0           "
"[&#39;conv3_2_1x1_increase/bn[0][0]&#39;,\n"
"                                                                  "
"&#39;activation_12[0][0]&#39;]\n"
"\n"
" activation_15 (Activation)     (None, 28, 28, 512)  0           "
"[&#39;add_4[0][0]&#39;]\n"
"\n"
" conv3_3_1x1_reduce (Conv2D)    (None, 28, 28, 128)  65536       "
"[&#39;activation_15[0][0]&#39;]\n"
"\n"
" conv3_3_1x1_reduce/bn (BatchNo  (None, 28, 28, 128)  512        "
"[&#39;conv3_3_1x1_reduce[0][0]&#39;]\n"
" rmalization)\n"
"\n"
" activation_16 (Activation)     (None, 28, 28, 128)  0           "
"[&#39;conv3_3_1x1_reduce/bn[0][0]&#39;]\n"
"\n"
" conv3_3_3x3 (Conv2D)           (None, 28, 28, 128)  147456      "
"[&#39;activation_16[0][0]&#39;]\n"
"\n"
" conv3_3_3x3/bn (BatchNormaliza  (None, 28, 28, 128)  512        "
"[&#39;conv3_3_3x3[0][0]&#39;]\n"
" tion)\n"
"\n"
" activation_17 (Activation)     (None, 28, 28, 128)  0           "
"[&#39;conv3_3_3x3/bn[0][0]&#39;]\n"
"\n"
" conv3_3_1x1_increase (Conv2D)  (None, 28, 28, 512)  65536       "
"[&#39;activation_17[0][0]&#39;]\n"
"\n"
" conv3_3_1x1_increase/bn (Batch  (None, 28, 28, 512)  2048       "
"[&#39;conv3_3_1x1_increase[0][0]&#39;]\n"
" Normalization)\n"
"\n"
" add_5 (Add)                    (None, 28, 28, 512)  0           "
"[&#39;conv3_3_1x1_increase/bn[0][0]&#39;,\n"
"                                                                  "
"&#39;activation_15[0][0]&#39;]\n"
"\n"
" activation_18 (Activation)     (None, 28, 28, 512)  0           "
"[&#39;add_5[0][0]&#39;]\n"
"\n"
" conv3_4_1x1_reduce (Conv2D)    (None, 28, 28, 128)  65536       "
"[&#39;activation_18[0][0]&#39;]\n"
"\n"
" conv3_4_1x1_reduce/bn (BatchNo  (None, 28, 28, 128)  512        "
"[&#39;conv3_4_1x1_reduce[0][0]&#39;]\n"
" rmalization)\n"
"\n"
" activation_19 (Activation)     (None, 28, 28, 128)  0           "
"[&#39;conv3_4_1x1_reduce/bn[0][0]&#39;]\n"
"\n"
" conv3_4_3x3 (Conv2D)           (None, 28, 28, 128)  147456      "
"[&#39;activation_19[0][0]&#39;]\n"
"\n"
" conv3_4_3x3/bn (BatchNormaliza  (None, 28, 28, 128)  512        "
"[&#39;conv3_4_3x3[0][0]&#39;]\n"
" tion)\n"
"\n"
" activation_20 (Activation)     (None, 28, 28, 128)  0           "
"[&#39;conv3_4_3x3/bn[0][0]&#39;]\n"
"\n"
" conv3_4_1x1_increase (Conv2D)  (None, 28, 28, 512)  65536       "
"[&#39;activation_20[0][0]&#39;]\n"
"\n"
" conv3_4_1x1_increase/bn (Batch  (None, 28, 28, 512)  2048       "
"[&#39;conv3_4_1x1_increase[0][0]&#39;]\n"
" Normalization)\n"
"\n"
" add_6 (Add)                    (None, 28, 28, 512)  0           "
"[&#39;conv3_4_1x1_increase/bn[0][0]&#39;,\n"
"                                                                  "
"&#39;activation_18[0][0]&#39;]\n"
"\n"
" activation_21 (Activation)     (None, 28, 28, 512)  0           "
"[&#39;add_6[0][0]&#39;]\n"
"\n"
" conv4_1_1x1_reduce (Conv2D)    (None, 14, 14, 256)  131072      "
"[&#39;activation_21[0][0]&#39;]\n"
"\n"
" conv4_1_1x1_reduce/bn (BatchNo  (None, 14, 14, 256)  1024       "
"[&#39;conv4_1_1x1_reduce[0][0]&#39;]\n"
" rmalization)\n"
"\n"
" activation_22 (Activation)     (None, 14, 14, 256)  0           "
"[&#39;conv4_1_1x1_reduce/bn[0][0]&#39;]\n"
"\n"
" conv4_1_3x3 (Conv2D)           (None, 14, 14, 256)  589824      "
"[&#39;activation_22[0][0]&#39;]\n"
"\n"
" conv4_1_3x3/bn (BatchNormaliza  (None, 14, 14, 256)  1024       "
"[&#39;conv4_1_3x3[0][0]&#39;]\n"
" tion)\n"
"\n"
" activation_23 (Activation)     (None, 14, 14, 256)  0           "
"[&#39;conv4_1_3x3/bn[0][0]&#39;]\n"
"\n"
" conv4_1_1x1_increase (Conv2D)  (None, 14, 14, 1024  262144      "
"[&#39;activation_23[0][0]&#39;]\n"
"                                )\n"
"\n"
" conv4_1_1x1_proj (Conv2D)      (None, 14, 14, 1024  524288      "
"[&#39;activation_21[0][0]&#39;]\n"
"                                )\n"
"\n"
" conv4_1_1x1_increase/bn (Batch  (None, 14, 14, 1024  4096       "
"[&#39;conv4_1_1x1_increase[0][0]&#39;]\n"
" Normalization)                 )\n"
"\n"
" conv4_1_1x1_proj/bn (BatchNorm  (None, 14, 14, 1024  4096       "
"[&#39;conv4_1_1x1_proj[0][0]&#39;]\n"
" alization)                     )\n"
"\n"
" add_7 (Add)                    (None, 14, 14, 1024  0           "
"[&#39;conv4_1_1x1_increase/bn[0][0]&#39;,\n"
"                                )                                 "
"&#39;conv4_1_1x1_proj/bn[0][0]&#39;]\n"
"\n"
" activation_24 (Activation)     (None, 14, 14, 1024  0           "
"[&#39;add_7[0][0]&#39;]\n"
"                                )\n"
"\n"
" conv4_2_1x1_reduce (Conv2D)    (None, 14, 14, 256)  262144      "
"[&#39;activation_24[0][0]&#39;]\n"
"\n"
" conv4_2_1x1_reduce/bn (BatchNo  (None, 14, 14, 256)  1024       "
"[&#39;conv4_2_1x1_reduce[0][0]&#39;]\n"
" rmalization)\n"
"\n"
" activation_25 (Activation)     (None, 14, 14, 256)  0           "
"[&#39;conv4_2_1x1_reduce/bn[0][0]&#39;]\n"
"\n"
" conv4_2_3x3 (Conv2D)           (None, 14, 14, 256)  589824      "
"[&#39;activation_25[0][0]&#39;]\n"
"\n"
" conv4_2_3x3/bn (BatchNormaliza  (None, 14, 14, 256)  1024       "
"[&#39;conv4_2_3x3[0][0]&#39;]\n"
" tion)\n"
"\n"
" activation_26 (Activation)     (None, 14, 14, 256)  0           "
"[&#39;conv4_2_3x3/bn[0][0]&#39;]\n"
"\n"
" conv4_2_1x1_increase (Conv2D)  (None, 14, 14, 1024  262144      "
"[&#39;activation_26[0][0]&#39;]\n"
"                                )\n"
"\n"
" conv4_2_1x1_increase/bn (Batch  (None, 14, 14, 1024  4096       "
"[&#39;conv4_2_1x1_increase[0][0]&#39;]\n"
" Normalization)                 )\n"
"\n"
" add_8 (Add)                    (None, 14, 14, 1024  0           "
"[&#39;conv4_2_1x1_increase/bn[0][0]&#39;,\n"
"                                )                                 "
"&#39;activation_24[0][0]&#39;]\n"
"\n"
" activation_27 (Activation)     (None, 14, 14, 1024  0           "
"[&#39;add_8[0][0]&#39;]\n"
"                                )\n"
"\n"
" conv4_3_1x1_reduce (Conv2D)    (None, 14, 14, 256)  262144      "
"[&#39;activation_27[0][0]&#39;]\n"
"\n"
" conv4_3_1x1_reduce/bn (BatchNo  (None, 14, 14, 256)  1024       "
"[&#39;conv4_3_1x1_reduce[0][0]&#39;]\n"
" rmalization)\n"
"\n"
" activation_28 (Activation)     (None, 14, 14, 256)  0           "
"[&#39;conv4_3_1x1_reduce/bn[0][0]&#39;]\n"
"\n"
" conv4_3_3x3 (Conv2D)           (None, 14, 14, 256)  589824      "
"[&#39;activation_28[0][0]&#39;]\n"
"\n"
" conv4_3_3x3/bn (BatchNormaliza  (None, 14, 14, 256)  1024       "
"[&#39;conv4_3_3x3[0][0]&#39;]\n"
" tion)\n"
"\n"
" activation_29 (Activation)     (None, 14, 14, 256)  0           "
"[&#39;conv4_3_3x3/bn[0][0]&#39;]\n"
"\n"
" conv4_3_1x1_increase (Conv2D)  (None, 14, 14, 1024  262144      "
"[&#39;activation_29[0][0]&#39;]\n"
"                                )\n"
"\n"
" conv4_3_1x1_increase/bn (Batch  (None, 14, 14, 1024  4096       "
"[&#39;conv4_3_1x1_increase[0][0]&#39;]\n"
" Normalization)                 )\n"
"\n"
" add_9 (Add)                    (None, 14, 14, 1024  0           "
"[&#39;conv4_3_1x1_increase/bn[0][0]&#39;,\n"
"                                )                                 "
"&#39;activation_27[0][0]&#39;]\n"
"\n"
" activation_30 (Activation)     (None, 14, 14, 1024  0           "
"[&#39;add_9[0][0]&#39;]\n"
"                                )\n"
"\n"
" conv4_4_1x1_reduce (Conv2D)    (None, 14, 14, 256)  262144      "
"[&#39;activation_30[0][0]&#39;]\n"
"\n"
" conv4_4_1x1_reduce/bn (BatchNo  (None, 14, 14, 256)  1024       "
"[&#39;conv4_4_1x1_reduce[0][0]&#39;]\n"
" rmalization)\n"
"\n"
" activation_31 (Activation)     (None, 14, 14, 256)  0           "
"[&#39;conv4_4_1x1_reduce/bn[0][0]&#39;]\n"
"\n"
" conv4_4_3x3 (Conv2D)           (None, 14, 14, 256)  589824      "
"[&#39;activation_31[0][0]&#39;]\n"
"\n"
" conv4_4_3x3/bn (BatchNormaliza  (None, 14, 14, 256)  1024       "
"[&#39;conv4_4_3x3[0][0]&#39;]\n"
" tion)\n"
"\n"
" activation_32 (Activation)     (None, 14, 14, 256)  0           "
"[&#39;conv4_4_3x3/bn[0][0]&#39;]\n"
"\n"
" conv4_4_1x1_increase (Conv2D)  (None, 14, 14, 1024  262144      "
"[&#39;activation_32[0][0]&#39;]\n"
"                                )\n"
"\n"
" conv4_4_1x1_increase/bn (Batch  (None, 14, 14, 1024  4096       "
"[&#39;conv4_4_1x1_increase[0][0]&#39;]\n"
" Normalization)                 )\n"
"\n"
" add_10 (Add)                   (None, 14, 14, 1024  0           "
"[&#39;conv4_4_1x1_increase/bn[0][0]&#39;,\n"
"                                )                                 "
"&#39;activation_30[0][0]&#39;]\n"
"\n"
" activation_33 (Activation)     (None, 14, 14, 1024  0           "
"[&#39;add_10[0][0]&#39;]\n"
"                                )\n"
"\n"
" conv4_5_1x1_reduce (Conv2D)    (None, 14, 14, 256)  262144      "
"[&#39;activation_33[0][0]&#39;]\n"
"\n"
" conv4_5_1x1_reduce/bn (BatchNo  (None, 14, 14, 256)  1024       "
"[&#39;conv4_5_1x1_reduce[0][0]&#39;]\n"
" rmalization)\n"
"\n"
" activation_34 (Activation)     (None, 14, 14, 256)  0           "
"[&#39;conv4_5_1x1_reduce/bn[0][0]&#39;]\n"
"\n"
" conv4_5_3x3 (Conv2D)           (None, 14, 14, 256)  589824      "
"[&#39;activation_34[0][0]&#39;]\n"
"\n"
" conv4_5_3x3/bn (BatchNormaliza  (None, 14, 14, 256)  1024       "
"[&#39;conv4_5_3x3[0][0]&#39;]\n"
" tion)\n"
"\n"
" activation_35 (Activation)     (None, 14, 14, 256)  0           "
"[&#39;conv4_5_3x3/bn[0][0]&#39;]\n"
"\n"
" conv4_5_1x1_increase (Conv2D)  (None, 14, 14, 1024  262144      "
"[&#39;activation_35[0][0]&#39;]\n"
"                                )\n"
"\n"
" conv4_5_1x1_increase/bn (Batch  (None, 14, 14, 1024  4096       "
"[&#39;conv4_5_1x1_increase[0][0]&#39;]\n"
" Normalization)                 )\n"
"\n"
" add_11 (Add)                   (None, 14, 14, 1024  0           "
"[&#39;conv4_5_1x1_increase/bn[0][0]&#39;,\n"
"                                )                                 "
"&#39;activation_33[0][0]&#39;]\n"
"\n"
" activation_36 (Activation)     (None, 14, 14, 1024  0           "
"[&#39;add_11[0][0]&#39;]\n"
"                                )\n"
"\n"
" conv4_6_1x1_reduce (Conv2D)    (None, 14, 14, 256)  262144      "
"[&#39;activation_36[0][0]&#39;]\n"
"\n"
" conv4_6_1x1_reduce/bn (BatchNo  (None, 14, 14, 256)  1024       "
"[&#39;conv4_6_1x1_reduce[0][0]&#39;]\n"
" rmalization)\n"
"\n"
" activation_37 (Activation)     (None, 14, 14, 256)  0           "
"[&#39;conv4_6_1x1_reduce/bn[0][0]&#39;]\n"
"\n"
" conv4_6_3x3 (Conv2D)           (None, 14, 14, 256)  589824      "
"[&#39;activation_37[0][0]&#39;]\n"
"\n"
" conv4_6_3x3/bn (BatchNormaliza  (None, 14, 14, 256)  1024       "
"[&#39;conv4_6_3x3[0][0]&#39;]\n"
" tion)\n"
"\n"
" activation_38 (Activation)     (None, 14, 14, 256)  0           "
"[&#39;conv4_6_3x3/bn[0][0]&#39;]\n"
"\n"
" conv4_6_1x1_increase (Conv2D)  (None, 14, 14, 1024  262144      "
"[&#39;activation_38[0][0]&#39;]\n"
"                                )\n"
"\n"
" conv4_6_1x1_increase/bn (Batch  (None, 14, 14, 1024  4096       "
"[&#39;conv4_6_1x1_increase[0][0]&#39;]\n"
" Normalization)                 )\n"
"\n"
" add_12 (Add)                   (None, 14, 14, 1024  0           "
"[&#39;conv4_6_1x1_increase/bn[0][0]&#39;,\n"
"                                )                                 "
"&#39;activation_36[0][0]&#39;]\n"
"\n"
" activation_39 (Activation)     (None, 14, 14, 1024  0           "
"[&#39;add_12[0][0]&#39;]\n"
"                                )\n"
"\n"
" conv5_1_1x1_reduce (Conv2D)    (None, 7, 7, 512)    524288      "
"[&#39;activation_39[0][0]&#39;]\n"
"\n"
" conv5_1_1x1_reduce/bn (BatchNo  (None, 7, 7, 512)   2048        "
"[&#39;conv5_1_1x1_reduce[0][0]&#39;]\n"
" rmalization)\n"
"\n"
" activation_40 (Activation)     (None, 7, 7, 512)    0           "
"[&#39;conv5_1_1x1_reduce/bn[0][0]&#39;]\n"
"\n"
" conv5_1_3x3 (Conv2D)           (None, 7, 7, 512)    2359296     "
"[&#39;activation_40[0][0]&#39;]\n"
"\n"
" conv5_1_3x3/bn (BatchNormaliza  (None, 7, 7, 512)   2048        "
"[&#39;conv5_1_3x3[0][0]&#39;]\n"
" tion)\n"
"\n"
" activation_41 (Activation)     (None, 7, 7, 512)    0           "
"[&#39;conv5_1_3x3/bn[0][0]&#39;]\n"
"\n"
" conv5_1_1x1_increase (Conv2D)  (None, 7, 7, 2048)   1048576     "
"[&#39;activation_41[0][0]&#39;]\n"
"\n"
" conv5_1_1x1_proj (Conv2D)      (None, 7, 7, 2048)   2097152     "
"[&#39;activation_39[0][0]&#39;]\n"
"\n"
" conv5_1_1x1_increase/bn (Batch  (None, 7, 7, 2048)  8192        "
"[&#39;conv5_1_1x1_increase[0][0]&#39;]\n"
" Normalization)\n"
"\n"
" conv5_1_1x1_proj/bn (BatchNorm  (None, 7, 7, 2048)  8192        "
"[&#39;conv5_1_1x1_proj[0][0]&#39;]\n"
" alization)\n"
"\n"
" add_13 (Add)                   (None, 7, 7, 2048)   0           "
"[&#39;conv5_1_1x1_increase/bn[0][0]&#39;,\n"
"                                                                  "
"&#39;conv5_1_1x1_proj/bn[0][0]&#39;]\n"
"\n"
" activation_42 (Activation)     (None, 7, 7, 2048)   0           "
"[&#39;add_13[0][0]&#39;]\n"
"\n"
" conv5_2_1x1_reduce (Conv2D)    (None, 7, 7, 512)    1048576     "
"[&#39;activation_42[0][0]&#39;]\n"
"\n"
" conv5_2_1x1_reduce/bn (BatchNo  (None, 7, 7, 512)   2048        "
"[&#39;conv5_2_1x1_reduce[0][0]&#39;]\n"
" rmalization)\n"
"\n"
" activation_43 (Activation)     (None, 7, 7, 512)    0           "
"[&#39;conv5_2_1x1_reduce/bn[0][0]&#39;]\n"
"\n"
" conv5_2_3x3 (Conv2D)           (None, 7, 7, 512)    2359296     "
"[&#39;activation_43[0][0]&#39;]\n"
"\n"
" conv5_2_3x3/bn (BatchNormaliza  (None, 7, 7, 512)   2048        "
"[&#39;conv5_2_3x3[0][0]&#39;]\n"
" tion)\n"
"\n"
" activation_44 (Activation)     (None, 7, 7, 512)    0           "
"[&#39;conv5_2_3x3/bn[0][0]&#39;]\n"
"\n"
" conv5_2_1x1_increase (Conv2D)  (None, 7, 7, 2048)   1048576     "
"[&#39;activation_44[0][0]&#39;]\n"
"\n"
" conv5_2_1x1_increase/bn (Batch  (None, 7, 7, 2048)  8192        "
"[&#39;conv5_2_1x1_increase[0][0]&#39;]\n"
" Normalization)\n"
"\n"
" add_14 (Add)                   (None, 7, 7, 2048)   0           "
"[&#39;conv5_2_1x1_increase/bn[0][0]&#39;,\n"
"                                                                  "
"&#39;activation_42[0][0]&#39;]\n"
"\n"
" activation_45 (Activation)     (None, 7, 7, 2048)   0           "
"[&#39;add_14[0][0]&#39;]\n"
"\n"
" conv5_3_1x1_reduce (Conv2D)    (None, 7, 7, 512)    1048576     "
"[&#39;activation_45[0][0]&#39;]\n"
"\n"
" conv5_3_1x1_reduce/bn (BatchNo  (None, 7, 7, 512)   2048        "
"[&#39;conv5_3_1x1_reduce[0][0]&#39;]\n"
" rmalization)\n"
"\n"
" activation_46 (Activation)     (None, 7, 7, 512)    0           "
"[&#39;conv5_3_1x1_reduce/bn[0][0]&#39;]\n"
"\n"
" conv5_3_3x3 (Conv2D)           (None, 7, 7, 512)    2359296     "
"[&#39;activation_46[0][0]&#39;]\n"
"\n"
" conv5_3_3x3/bn (BatchNormaliza  (None, 7, 7, 512)   2048        "
"[&#39;conv5_3_3x3[0][0]&#39;]\n"
" tion)\n"
"\n"
" activation_47 (Activation)     (None, 7, 7, 512)    0           "
"[&#39;conv5_3_3x3/bn[0][0]&#39;]\n"
"\n"
" conv5_3_1x1_increase (Conv2D)  (None, 7, 7, 2048)   1048576     "
"[&#39;activation_47[0][0]&#39;]\n"
"\n"
" conv5_3_1x1_increase/bn (Batch  (None, 7, 7, 2048)  8192        "
"[&#39;conv5_3_1x1_increase[0][0]&#39;]\n"
" Normalization)\n"
"\n"
" add_15 (Add)                   (None, 7, 7, 2048)   0           "
"[&#39;conv5_3_1x1_increase/bn[0][0]&#39;,\n"
"                                                                  "
"&#39;activation_45[0][0]&#39;]\n"
"\n"
" activation_48 (Activation)     (None, 7, 7, 2048)   0           "
"[&#39;add_15[0][0]&#39;]\n"
"\n"
" avg_pool (AveragePooling2D)    (None, 1, 1, 2048)   0           "
"[&#39;activation_48[0][0]&#39;]\n"
"\n"
" global_average_pooling2d (Glob  (None, 2048)        0           "
"[&#39;avg_pool[0][0]&#39;]\n"
" alAveragePooling2D)\n"
"\n"
" gaussian_noise (GaussianNoise)  (None, 2048)        0           "
"[&#39;global_average_pooling2d[0][0]&#39;\n"
"                                                                 ]\n"
"\n"
" dense_x (Dense)                (None, 512)          1049088     "
"[&#39;gaussian_noise[0][0]&#39;]\n"
"\n"
"=================================================================================================="
"\n"
"Total params: 24,610,240\n"
"Trainable params: 24,557,120\n"
"Non-trainable params: 53,120\n"
"__________________________________________________________________________________________________"
"\n"
"</pre>"
msgstr ""

#: ../../source/user_guide/notebooks/Video-load_video_model_deep_fe.ipynb:687
…
