…
#: ../../source/user_guide/notebooks/Video-load_video_model_nn.ipynb:-1
#: cd827b50aaee43b9a552f81283bf57b9
msgid "_b5.video_model_nn_.summary()"
msgstr ""

#: ../../source/user_guide/notebooks/Video-load_video_model_nn.ipynb:257
#: 616a21db130d47ccab83cfc0afc1c3ec
msgid ""
"<pre>\n"
"Model: &#34;model&#34;\n"
"_________________________________________________________________\n"
" Layer (type)                Output Shape              Param #\n"
"=================================================================\n"
" input_1 (InputLayer)        [(None, 10, 512)]         0\n"
"\n"
" lstm (LSTM)                 (None, 1024)              6295552\n"
"\n"
" dropout (Dropout)           (None, 1024)              0\n"
"\n"
" dense (Dense)               (None, 5)                 5125\n"
"\n"
" activation (Activation)     (None, 5)                 0\n"
"\n"
"=================================================================\n"
"Total params: 6,300,677\n"
"Trainable params: 6,300,677\n"
"Non-trainable params: 0\n"
"_________________________________________________________________\n"
"</pre>"
msgstr ""

#: ../../source/user_guide/notebooks/Video-load_video_model_nn.ipynb:281
#: cc37233c01624da3bf6c07db95d83af4
msgid ""
"\\begin{sphinxVerbatim}[commandchars=\\\\\\{\\}]\n"
"Model: \"model\"\n"
"\\_\\_\\_\\_\\_\\_\\_\\_\\_\\_\\_\\_\\_\\_\\_\\_\\_\\_\\_\\_\\_\\_\\_\\_\\_\\_\\_\\_\\_\\_\\_\\_\\_\\_\\_\\_\\_\\_\\_\\_\\_\\_\\_\\_\\_\\_\\_\\_\\_\\_\\_\\_\\_\\_\\_\\_\\_\\_\\_\\_\\_\\_\\_\\_\\_"
"\n"
" Layer (type)                Output Shape              Param \\#\n"
"=================================================================\n"
" input\\_1 (InputLayer)        [(None, 10, 512)]         0\n"
"\n"
" lstm (LSTM)                 (None, 1024)              6295552\n"
"\n"
" dropout (Dropout)           (None, 1024)              0\n"
"\n"
" dense (Dense)               (None, 5)                 5125\n"
"\n"
" activation (Activation)     (None, 5)                 0\n"
"\n"
"=================================================================\n"
"Total params: 6,300,677\n"
"Trainable params: 6,300,677\n"
"Non-trainable params: 0\n"
"\\_\\_\\_\\_\\_\\_\\_\\_\\_\\_\\_\\_\\_\\_\\_\\_\\_\\_\\_\\_\\_\\_\\_\\_\\_\\_\\_\\_\\_\\_\\_\\_\\_\\_\\_\\_\\_\\_\\_\\_\\_\\_\\_\\_\\_\\_\\_\\_\\_\\_\\_\\_\\_\\_\\_\\_\\_\\_\\_\\_\\_\\_\\_\\_\\_"
"\n"
"\\end{sphinxVerbatim}"
msgstr ""

#: ../../source/user_guide/notebooks/Video-load_video_model_nn.ipynb:306
#: 652bf8228fc14196acee7878c4c02075
msgid ""
"Model: \"model\"\n"
"_________________________________________________________________\n"
" Layer (type)                Output Shape              Param #\n"
"=================================================================\n"
" input_1 (InputLayer)        [(None, 10, 512)]         0\n"
"\n"
" lstm (LSTM)                 (None, 1024)              6295552\n"
"\n"
" dropout (Dropout)           (None, 1024)              0\n"
"\n"
" dense (Dense)               (None, 5)                 5125\n"
"\n"
" activation (Activation)     (None, 5)                 0\n"
"\n"
"=================================================================\n"
"Total params: 6,300,677\n"
"Trainable params: 6,300,677\n"
"Non-trainable params: 0\n"
"_________________________________________________________________"
msgstr ""
