…
#: ../../source/user_guide/notebooks/Audio-load_audio_model_hc.ipynb:-1
#: 3e67a8db98d046958fa48e5384b18eb8
msgid "_b5.audio_model_hc_.summary()"
msgstr ""

#: ../../source/user_guide/notebooks/Audio-load_audio_model_hc.ipynb:232
#: 18988958df324845be7e0741b06586c3
msgid ""
"<pre>\n"
"Model: &#34;model_1&#34;\n"
"_________________________________________________________________\n"
" Layer (type)                Output Shape              Param #\n"
"=================================================================\n"
" input_1 (InputLayer)        [(None, 196, 25)]         0\n"
"\n"
" lstm (LSTM)                 (None, 196, 64)           23040\n"
"\n"
" dropout (Dropout)           (None, 196, 64)           0\n"
"\n"
" lstm_128_a_hc (LSTM)        (None, 128)               98816\n"
"\n"
" dropout_1 (Dropout)         (None, 128)               0\n"
"\n"
" dense (Dense)               (None, 5)                 645\n"
"\n"
"=================================================================\n"
"Total params: 122,501\n"
"Trainable params: 122,501\n"
"Non-trainable params: 0\n"
"_________________________________________________________________\n"
"</pre>"
msgstr ""

#: ../../source/user_guide/notebooks/Audio-load_audio_model_hc.ipynb:258
#: 79ddcd81294b415fa1138880853d8073
msgid ""
"\\begin{sphinxVerbatim}[commandchars=\\\\\\{\\}]\n"
"Model: \"model\\_1\"\n"
"\\_\\_\\_\\_\\_\\_\\_\\_\\_\\_\\_\\_\\_\\_\\_\\_\\_\\_\\_\\_\\_\\_\\_\\_\\_\\_\\_\\_\\_\\_\\_\\_\\_\\_\\_\\_\\_\\_\\_\\_\\_\\_\\_\\_\\_\\_\\_\\_\\_\\_\\_\\_\\_\\_\\_\\_\\_\\_\\_\\_\\_\\_\\_\\_\\_"
"\n"
" Layer (type)                Output Shape              Param \\#\n"
"=================================================================\n"
" input\\_1 (InputLayer)        [(None, 196, 25)]         0\n"
"\n"
" lstm (LSTM)                 (None, 196, 64)           23040\n"
"\n"
" dropout (Dropout)           (None, 196, 64)           0\n"
"\n"
" lstm\\_128\\_a\\_hc (LSTM)        (None, 128)               98816\n"
"\n"
" dropout\\_1 (Dropout)         (None, 128)               0\n"
"\n"
" dense (Dense)               (None, 5)                 645\n"
"\n"
"=================================================================\n"
"Total params: 122,501\n"
"Trainable params: 122,501\n"
"Non-trainable params: 0\n"
"\\_\\_\\_\\_\\_\\_\\_\\_\\_\\_\\_\\_\\_\\_\\_\\_\\_\\_\\_\\_\\_\\_\\_\\_\\_\\_\\_\\_\\_\\_\\_\\_\\_\\_\\_\\_\\_\\_\\_\\_\\_\\_\\_\\_\\_\\_\\_\\_\\_\\_\\_\\_\\_\\_\\_\\_\\_\\_\\_\\_\\_\\_\\_\\_\\_"
"\n"
"\\end{sphinxVerbatim}"
msgstr ""

#: ../../source/user_guide/notebooks/Audio-load_audio_model_hc.ipynb:285
#: 96021f3ab52847a790baab3fa5f57a1f
msgid ""
"Model: \"model_1\"\n"
"_________________________________________________________________\n"
" Layer (type)                Output Shape              Param #\n"
"=================================================================\n"
" input_1 (InputLayer)        [(None, 196, 25)]         0\n"
"\n"
" lstm (LSTM)                 (None, 196, 64)           23040\n"
"\n"
" dropout (Dropout)           (None, 196, 64)           0\n"
"\n"
" lstm_128_a_hc (LSTM)        (None, 128)               98816\n"
"\n"
" dropout_1 (Dropout)         (None, 128)               0\n"
"\n"
" dense (Dense)               (None, 5)                 645\n"
"\n"
"=================================================================\n"
"Total params: 122,501\n"
"Trainable params: 122,501\n"
"Non-trainable params: 0\n"
"_________________________________________________________________"
msgstr ""
