…
"=================================================================================================="
"\n"
" hc_t (InputLayer)              [(None, 128)]        0           []\n"
"\n"
" hc_a (InputLayer)              [(None, 256)]        0           []\n"
"\n"
" nn_t (InputLayer)              [(None, 128)]        0           []\n"
"\n"
" nn_a (InputLayer)              [(None, 512)]        0           []\n"
"\n"
" hc_v (InputLayer)              [(None, 256)]        0           []\n"
"\n"
" nn_v (InputLayer)              [(None, 2048)]       0           []\n"
"\n"
" ln_hc_t (LayerNormalization)   (None, 128)          256         "
"[&#39;hc_t[0][0]&#39;]\n"
"\n"
" ln_hc_a (LayerNormalization)   (None, 256)          512         "
"[&#39;hc_a[0][0]&#39;]\n"
"\n"
" ln_nn_t (LayerNormalization)   (None, 128)          256         "
"[&#39;nn_t[0][0]&#39;]\n"
"\n"
" ln_nn_a (LayerNormalization)   (None, 512)          1024        "
"[&#39;nn_a[0][0]&#39;]\n"
"\n"
" ln_hc_v (LayerNormalization)   (None, 256)          512         "
"[&#39;hc_v[0][0]&#39;]\n"
"\n"
" ln_nn_v (LayerNormalization)   (None, 2048)         4096        "
"[&#39;nn_v[0][0]&#39;]\n"
"\n"
" gata (GFL)                     (None, 64)           131072      "
"[&#39;ln_hc_t[0][0]&#39;,\n"
"                                                                  "
"&#39;ln_hc_a[0][0]&#39;,\n"
"                                                                  "
"&#39;ln_nn_t[0][0]&#39;,\n"
"                                                                  "
"&#39;ln_nn_a[0][0]&#39;]\n"
"\n"
" gatv (GFL)                     (None, 64)           327680      "
"[&#39;ln_hc_t[0][0]&#39;,\n"
"                                                                  "
"&#39;ln_hc_v[0][0]&#39;,\n"
"                                                                  "
"&#39;ln_nn_t[0][0]&#39;,\n"
"                                                                  "
"&#39;ln_nn_v[0][0]&#39;]\n"
"\n"
" gaav (GFL)                     (None, 64)           393216      "
"[&#39;ln_hc_a[0][0]&#39;,\n"
"                                                                  "
"&#39;ln_hc_v[0][0]&#39;,\n"
"                                                                  "
"&#39;ln_nn_a[0][0]&#39;,\n"
"                                                                  "
"&#39;ln_nn_v[0][0]&#39;]\n"
"\n"
" tf.concat (TFOpLambda)         (None, 192)          0           "
"[&#39;gata[0][0]&#39;,\n"
"                                                                  "
"&#39;gatv[0][0]&#39;,\n"
"                                                                  "
"&#39;gaav[0][0]&#39;]\n"
"\n"
" dense (Dense)                  (None, 50)           9650        "
"[&#39;tf.concat[0][0]&#39;]\n"
"\n"
" dence_cl (Dense)               (None, 5)            255         "
"[&#39;dense[0][0]&#39;]\n"
"\n"
"=================================================================================================="
"\n"
"Total params: 868,529\n"
"Trainable params: 868,529\n"
"Non-trainable params: 0\n"
"__________________________________________________________________________________________________"
"\n"
"</pre>"
msgstr ""

#: ../../source/user_guide/notebooks/Prediction-load_avt_model_oceanai.ipynb:293
…
