…
#: ../../source/user_guide/notebooks/Video-load_video_model_hc.ipynb:-1
#: 799cff0c781d492b9eb8e24aee2c8bbb d08822481e284b13bf86a744773e78ed
msgid "_b5.video_model_hc_.summary()"
msgstr ""

#: ../../source/user_guide/notebooks/Video-load_video_model_hc.ipynb:233
#: 19bd12de64134deeac0c99ff548bd8fd
msgid ""
"<pre>\n"
"Model: &#34;model_1&#34;\n"
"_________________________________________________________________\n"
" Layer (type)                Output Shape              Param #\n"
"=================================================================\n"
" input_1 (InputLayer)        [(None, 10, 115)]         0\n"
"\n"
" lstm (LSTM)                 (None, 10, 64)            46080\n"
"\n"
" dropout (Dropout)           (None, 10, 64)            0\n"
"\n"
" lstm_128_v_hc (LSTM)        (None, 128)               98816\n"
"\n"
" dropout_1 (Dropout)         (None, 128)               0\n"
"\n"
" dense (Dense)               (None, 5)                 645\n"
"\n"
"=================================================================\n"
"Total params: 145,541\n"
"Trainable params: 145,541\n"
"Non-trainable params: 0\n"
"_________________________________________________________________\n"
"</pre>"
msgstr ""

#: ../../source/user_guide/notebooks/Video-load_video_model_hc.ipynb:259
#: 6c77a5f1c3ab4ae9a44cc2665bfdb366
msgid ""
"\\begin{sphinxVerbatim}[commandchars=\\\\\\{\\}]\n"
"Model: \"model\\_1\"\n"
"\\_\\_\\_\\_\\_\\_\\_\\_\\_\\_\\_\\_\\_\\_\\_\\_\\_\\_\\_\\_\\_\\_\\_\\_\\_\\_\\_\\_\\_\\_\\_\\_\\_\\_\\_\\_\\_\\_\\_\\_\\_\\_\\_\\_\\_\\_\\_\\_\\_\\_\\_\\_\\_\\_\\_\\_\\_\\_\\_\\_\\_\\_\\_\\_\\_"
"\n"
" Layer (type)                Output Shape              Param \\#\n"
"=================================================================\n"
" input\\_1 (InputLayer)        [(None, 10, 115)]         0\n"
"\n"
" lstm (LSTM)                 (None, 10, 64)            46080\n"
"\n"
" dropout (Dropout)           (None, 10, 64)            0\n"
"\n"
" lstm\\_128\\_v\\_hc (LSTM)        (None, 128)               98816\n"
"\n"
" dropout\\_1 (Dropout)         (None, 128)               0\n"
"\n"
" dense (Dense)               (None, 5)                 645\n"
"\n"
"=================================================================\n"
"Total params: 145,541\n"
"Trainable params: 145,541\n"
"Non-trainable params: 0\n"
"\\_\\_\\_\\_\\_\\_\\_\\_\\_\\_\\_\\_\\_\\_\\_\\_\\_\\_\\_\\_\\_\\_\\_\\_\\_\\_\\_\\_\\_\\_\\_\\_\\_\\_\\_\\_\\_\\_\\_\\_\\_\\_\\_\\_\\_\\_\\_\\_\\_\\_\\_\\_\\_\\_\\_\\_\\_\\_\\_\\_\\_\\_\\_\\_\\_"
"\n"
"\\end{sphinxVerbatim}"
msgstr ""

#: ../../source/user_guide/notebooks/Video-load_video_model_hc.ipynb:286
#: 8c01fe7e5e5c4da899410b9fabbffad1
msgid ""
"Model: \"model_1\"\n"
"_________________________________________________________________\n"
" Layer (type)                Output Shape              Param #\n"
"=================================================================\n"
" input_1 (InputLayer)        [(None, 10, 115)]         0\n"
"\n"
" lstm (LSTM)                 (None, 10, 64)            46080\n"
"\n"
" dropout (Dropout)           (None, 10, 64)            0\n"
"\n"
" lstm_128_v_hc (LSTM)        (None, 128)               98816\n"
"\n"
" dropout_1 (Dropout)         (None, 128)               0\n"
"\n"
" dense (Dense)               (None, 5)                 645\n"
"\n"
"=================================================================\n"
"Total params: 145,541\n"
"Trainable params: 145,541\n"
"Non-trainable params: 0\n"
"_________________________________________________________________"
msgstr ""

#: ../../source/user_guide/notebooks/Video-load_video_model_hc.ipynb:318
#: fc1d758b57d8402996fe34d78c96433b
msgid "Формирование нейросетевой архитектуры модели (``MuPTA``)"
…
msgstr "— Runtime: 0.307 sec. —"

#: ../../source/user_guide/notebooks/Video-load_video_model_hc.ipynb:-1
#: fe5d1c352459472eb1827b2fc3de4ff6
msgid "[9]:"
msgstr ""

#: ../../source/user_guide/notebooks/Video-load_video_model_hc.ipynb:454
#: 4da54442552d4605b0980d00320616a4
msgid ""
"<pre>\n"
"Model: &#34;model_3&#34;\n"
"_________________________________________________________________\n"
" Layer (type)                Output Shape              Param #\n"
"=================================================================\n"
" input_2 (InputLayer)        [(None, 10, 109)]         0\n"
"\n"
" lstm_1 (LSTM)               (None, 10, 64)            44544\n"
"\n"
" dropout_2 (Dropout)         (None, 10, 64)            0\n"
"\n"
" lstm_128_v_hc (LSTM)        (None, 128)               98816\n"
"\n"
" dropout_3 (Dropout)         (None, 128)               0\n"
"\n"
" dense_1 (Dense)             (None, 5)                 645\n"
"\n"
"=================================================================\n"
"Total params: 144,005\n"
"Trainable params: 144,005\n"
"Non-trainable params: 0\n"
"_________________________________________________________________\n"
"</pre>"
msgstr ""

#: ../../source/user_guide/notebooks/Video-load_video_model_hc.ipynb:480
#: d5d13e3f49fa4beeb8b0e400135b9974
msgid ""
"\\begin{sphinxVerbatim}[commandchars=\\\\\\{\\}]\n"
"Model: \"model\\_3\"\n"
"\\_\\_\\_\\_\\_\\_\\_\\_\\_\\_\\_\\_\\_\\_\\_\\_\\_\\_\\_\\_\\_\\_\\_\\_\\_\\_\\_\\_\\_\\_\\_\\_\\_\\_\\_\\_\\_\\_\\_\\_\\_\\_\\_\\_\\_\\_\\_\\_\\_\\_\\_\\_\\_\\_\\_\\_\\_\\_\\_\\_\\_\\_\\_\\_\\_"
"\n"
" Layer (type)                Output Shape              Param \\#\n"
"=================================================================\n"
" input\\_2 (InputLayer)        [(None, 10, 109)]         0\n"
"\n"
" lstm\\_1 (LSTM)               (None, 10, 64)            44544\n"
"\n"
" dropout\\_2 (Dropout)         (None, 10, 64)            0\n"
"\n"
" lstm\\_128\\_v\\_hc (LSTM)        (None, 128)               98816\n"
"\n"
" dropout\\_3 (Dropout)         (None, 128)               0\n"
"\n"
" dense\\_1 (Dense)             (None, 5)                 645\n"
"\n"
"=================================================================\n"
"Total params: 144,005\n"
"Trainable params: 144,005\n"
"Non-trainable params: 0\n"
"\\_\\_\\_\\_\\_\\_\\_\\_\\_\\_\\_\\_\\_\\_\\_\\_\\_\\_\\_\\_\\_\\_\\_\\_\\_\\_\\_\\_\\_\\_\\_\\_\\_\\_\\_\\_\\_\\_\\_\\_\\_\\_\\_\\_\\_\\_\\_\\_\\_\\_\\_\\_\\_\\_\\_\\_\\_\\_\\_\\_\\_\\_\\_\\_\\_"
"\n"
"\\end{sphinxVerbatim}"
msgstr ""

#: ../../source/user_guide/notebooks/Video-load_video_model_hc.ipynb:507
#: 4cd2a446effa4bd7ad6c2b7e5f2d0a5b
msgid ""
"Model: \"model_3\"\n"
"_________________________________________________________________\n"
" Layer (type)                Output Shape              Param #\n"
"=================================================================\n"
" input_2 (InputLayer)        [(None, 10, 109)]         0\n"
"\n"
" lstm_1 (LSTM)               (None, 10, 64)            44544\n"
"\n"
" dropout_2 (Dropout)         (None, 10, 64)            0\n"
"\n"
" lstm_128_v_hc (LSTM)        (None, 128)               98816\n"
"\n"
" dropout_3 (Dropout)         (None, 128)               0\n"
"\n"
" dense_1 (Dense)             (None, 5)                 645\n"
"\n"
"=================================================================\n"
"Total params: 144,005\n"
"Trainable params: 144,005\n"
"Non-trainable params: 0\n"
"_________________________________________________________________"
msgstr ""
