…
#: ../../source/user_guide/notebooks/Video-load_video_model_nn.ipynb:-1
#: 2e7b1293aac9417c9c486568cf6da217
msgid "_b5.video_model_nn_.summary()"
msgstr ""

#: ../../source/user_guide/notebooks/Video-load_video_model_nn.ipynb:232
#: 6690b281b6dd42eaa9b60d7c066179d0
msgid ""
"<pre>\n"
"Model: &#34;model_1&#34;\n"
"_________________________________________________________________\n"
" Layer (type)                Output Shape              Param #\n"
"=================================================================\n"
" input_1 (InputLayer)        [(None, 10, 512)]         0\n"
"\n"
" lstm_1024_v_nn (LSTM)       (None, 1024)              6295552\n"
"\n"
" dropout (Dropout)           (None, 1024)              0\n"
"\n"
" dense (Dense)               (None, 5)                 5125\n"
"\n"
" activation (Activation)     (None, 5)                 0\n"
"\n"
"=================================================================\n"
"Total params: 6,300,677\n"
"Trainable params: 6,300,677\n"
"Non-trainable params: 0\n"
"_________________________________________________________________\n"
"</pre>"
msgstr ""

#: ../../source/user_guide/notebooks/Video-load_video_model_nn.ipynb:256
#: d0913f137b2d4af097d3a91b7cd38c28
msgid ""
"\\begin{sphinxVerbatim}[commandchars=\\\\\\{\\}]\n"
"Model: \"model\\_1\"\n"
"\\_\\_\\_\\_\\_\\_\\_\\_\\_\\_\\_\\_\\_\\_\\_\\_\\_\\_\\_\\_\\_\\_\\_\\_\\_\\_\\_\\_\\_\\_\\_\\_\\_\\_\\_\\_\\_\\_\\_\\_\\_\\_\\_\\_\\_\\_\\_\\_\\_\\_\\_\\_\\_\\_\\_\\_\\_\\_\\_\\_\\_\\_\\_\\_\\_"
"\n"
" Layer (type)                Output Shape              Param \\#\n"
"=================================================================\n"
" input\\_1 (InputLayer)        [(None, 10, 512)]         0\n"
"\n"
" lstm\\_1024\\_v\\_nn (LSTM)       (None, 1024)              6295552\n"
"\n"
" dropout (Dropout)           (None, 1024)              0\n"
"\n"
" dense (Dense)               (None, 5)                 5125\n"
"\n"
" activation (Activation)     (None, 5)                 0\n"
"\n"
"=================================================================\n"
"Total params: 6,300,677\n"
"Trainable params: 6,300,677\n"
"Non-trainable params: 0\n"
"\\_\\_\\_\\_\\_\\_\\_\\_\\_\\_\\_\\_\\_\\_\\_\\_\\_\\_\\_\\_\\_\\_\\_\\_\\_\\_\\_\\_\\_\\_\\_\\_\\_\\_\\_\\_\\_\\_\\_\\_\\_\\_\\_\\_\\_\\_\\_\\_\\_\\_\\_\\_\\_\\_\\_\\_\\_\\_\\_\\_\\_\\_\\_\\_\\_"
"\n"
"\\end{sphinxVerbatim}"
msgstr ""

#: ../../source/user_guide/notebooks/Video-load_video_model_nn.ipynb:281
#: c4026d95bd7a4a04910c0f921da00c92
msgid ""
"Model: \"model_1\"\n"
"_________________________________________________________________\n"
" Layer (type)                Output Shape              Param #\n"
"=================================================================\n"
" input_1 (InputLayer)        [(None, 10, 512)]         0\n"
"\n"
" lstm_1024_v_nn (LSTM)       (None, 1024)              6295552\n"
"\n"
" dropout (Dropout)           (None, 1024)              0\n"
"\n"
" dense (Dense)               (None, 5)                 5125\n"
"\n"
" activation (Activation)     (None, 5)                 0\n"
"\n"
"=================================================================\n"
"Total params: 6,300,677\n"
"Trainable params: 6,300,677\n"
"Non-trainable params: 0\n"
"_________________________________________________________________"
msgstr ""
