…
#: ../../source/user_guide/notebooks/Video-load_video_model_hc.ipynb:-1
#: a1f40545d9274960983154236606c504
msgid "_b5.video_model_hc_.summary()"
msgstr ""

#: ../../source/user_guide/notebooks/Video-load_video_model_hc.ipynb:257
#: 4280c981616b4e5aafa383f5b78c9626
msgid ""
"<pre>\n"
"Model: &#34;model&#34;\n"
"_________________________________________________________________\n"
" Layer (type)                Output Shape              Param #\n"
"=================================================================\n"
" input_1 (InputLayer)        [(None, 10, 115)]         0\n"
"\n"
" lstm (LSTM)                 (None, 10, 64)            46080\n"
"\n"
" dropout (Dropout)           (None, 10, 64)            0\n"
"\n"
" lstm_1 (LSTM)               (None, 128)               98816\n"
"\n"
" dropout_1 (Dropout)         (None, 128)               0\n"
"\n"
" dense (Dense)               (None, 5)                 645\n"
"\n"
"=================================================================\n"
"Total params: 145,541\n"
"Trainable params: 145,541\n"
"Non-trainable params: 0\n"
"_________________________________________________________________\n"
"</pre>"
msgstr ""

#: ../../source/user_guide/notebooks/Video-load_video_model_hc.ipynb:283
#: 37a95d4f3de14be2b1cafcdb667a0164
msgid ""
"\\begin{sphinxVerbatim}[commandchars=\\\\\\{\\}]\n"
"Model: \"model\"\n"
"\\_\\_\\_\\_\\_\\_\\_\\_\\_\\_\\_\\_\\_\\_\\_\\_\\_\\_\\_\\_\\_\\_\\_\\_\\_\\_\\_\\_\\_\\_\\_\\_\\_\\_\\_\\_\\_\\_\\_\\_\\_\\_\\_\\_\\_\\_\\_\\_\\_\\_\\_\\_\\_\\_\\_\\_\\_\\_\\_\\_\\_\\_\\_\\_\\_"
"\n"
" Layer (type)                Output Shape              Param \\#\n"
"=================================================================\n"
" input\\_1 (InputLayer)        [(None, 10, 115)]         0\n"
"\n"
" lstm (LSTM)                 (None, 10, 64)            46080\n"
"\n"
" dropout (Dropout)           (None, 10, 64)            0\n"
"\n"
" lstm\\_1 (LSTM)               (None, 128)               98816\n"
"\n"
" dropout\\_1 (Dropout)         (None, 128)               0\n"
"\n"
" dense (Dense)               (None, 5)                 645\n"
"\n"
"=================================================================\n"
"Total params: 145,541\n"
"Trainable params: 145,541\n"
"Non-trainable params: 0\n"
"\\_\\_\\_\\_\\_\\_\\_\\_\\_\\_\\_\\_\\_\\_\\_\\_\\_\\_\\_\\_\\_\\_\\_\\_\\_\\_\\_\\_\\_\\_\\_\\_\\_\\_\\_\\_\\_\\_\\_\\_\\_\\_\\_\\_\\_\\_\\_\\_\\_\\_\\_\\_\\_\\_\\_\\_\\_\\_\\_\\_\\_\\_\\_\\_\\_"
"\n"
"\\end{sphinxVerbatim}"
msgstr ""

#: ../../source/user_guide/notebooks/Video-load_video_model_hc.ipynb:310
#: 115181b4c2c94cf2b171d10da6b66ec8
msgid ""
"Model: \"model\"\n"
"_________________________________________________________________\n"
" Layer (type)                Output Shape              Param #\n"
"=================================================================\n"
" input_1 (InputLayer)        [(None, 10, 115)]         0\n"
"\n"
" lstm (LSTM)                 (None, 10, 64)            46080\n"
"\n"
" dropout (Dropout)           (None, 10, 64)            0\n"
"\n"
" lstm_1 (LSTM)               (None, 128)               98816\n"
"\n"
" dropout_1 (Dropout)         (None, 128)               0\n"
"\n"
" dense (Dense)               (None, 5)                 645\n"
"\n"
"=================================================================\n"
"Total params: 145,541\n"
"Trainable params: 145,541\n"
"Non-trainable params: 0\n"
"_________________________________________________________________"
msgstr ""
