…
"    runtime = True, run = True\n"
")"
msgstr ""

#: 97de877da2984177aabafb16fbd4b675
#: oceanai.modules.lab.audio.Audio.load_audio_model_nn:33 of
msgid ""
"[2022-10-17 13:25:34] Формирование нейросетевой архитектуры для получения"
" оценок по нейросетевым признакам (аудио модальность) ...\n"
"\n"
"Model: \"model\"\n"
"_________________________________________________________________\n"
" Layer (type)                Output Shape              Param #\n"
"=================================================================\n"
" input_1 (InputLayer)        [(None, 224, 224, 3)]     0\n"
"\n"
" block1_conv1 (Conv2D)       (None, 224, 224, 64)      1792\n"
"\n"
" block1_conv2 (Conv2D)       (None, 224, 224, 64)      36928\n"
"\n"
" block1_pool (MaxPooling2D)  (None, 112, 112, 64)      0\n"
"\n"
" block2_conv1 (Conv2D)       (None, 112, 112, 128)     73856\n"
"\n"
" block2_conv2 (Conv2D)       (None, 112, 112, 128)     147584\n"
"\n"
" block2_pool (MaxPooling2D)  (None, 56, 56, 128)       0\n"
"\n"
" block3_conv1 (Conv2D)       (None, 56, 56, 256)       295168\n"
"\n"
" block3_conv2 (Conv2D)       (None, 56, 56, 256)       590080\n"
"\n"
" block3_conv3 (Conv2D)       (None, 56, 56, 256)       590080\n"
"\n"
" block3_pool (MaxPooling2D)  (None, 28, 28, 256)       0\n"
"\n"
" block4_conv1 (Conv2D)       (None, 28, 28, 512)       1180160\n"
"\n"
" block4_conv2 (Conv2D)       (None, 28, 28, 512)       2359808\n"
"\n"
" block4_conv3 (Conv2D)       (None, 28, 28, 512)       2359808\n"
"\n"
" block4_pool (MaxPooling2D)  (None, 14, 14, 512)       0\n"
"\n"
" block5_conv1 (Conv2D)       (None, 14, 14, 512)       2359808\n"
"\n"
" block5_conv2 (Conv2D)       (None, 14, 14, 512)       2359808\n"
"\n"
" block5_conv3 (Conv2D)       (None, 14, 14, 512)       2359808\n"
"\n"
" block5_pool (MaxPooling2D)  (None, 7, 7, 512)         0\n"
"\n"
" flatten (Flatten)           (None, 25088)             0\n"
"\n"
" dense (Dense)               (None, 512)               12845568\n"
"\n"
" dropout (Dropout)           (None, 512)               0\n"
"\n"
" dense_1 (Dense)             (None, 256)               131328\n"
"\n"
" dense_2 (Dense)             (None, 5)                 1285\n"
"\n"
"=================================================================\n"
"Total params: 27,692,869\n"
"Trainable params: 27,692,869\n"
"Non-trainable params: 0\n"
"_________________________________________________________________\n"
"--- Время выполнения: 0.407 сек. ---\n"
"\n"
"True"
msgstr ""

#: d2e854f25bda4ab0a869f0665b803051
#: oceanai.modules.lab.audio.Audio.load_audio_model_nn:102 of
…
