…
"=================================================================================================="
"\n"
" input_2 (InputLayer)           [(None, 224, 224, 3  0           []\n"
"                )]\n"
"\n"
" conv1/7x7_s2 (Conv2D)          (None, 112, 112, 64  9408        "
"['input_2[0][0]']\n"
"                )\n"
"\n"
" conv1/7x7_s2/bn (BatchNormaliz  (None, 112, 112, 64  256        "
"['conv1/7x7_s2[0][0]']\n"
" ation)                         )\n"
"\n"
" activation_49 (Activation)     (None, 112, 112, 64  0           "
"['conv1/7x7_s2/bn[0][0]']\n"
"                )\n"
"\n"
" max_pooling2d_1 (MaxPooling2D)  (None, 55, 55, 64)  0           "
"['activation_49[0][0]']\n"
"\n"
" conv2_1_1x1_reduce (Conv2D)    (None, 55, 55, 64)   4096        "
"['max_pooling2d_1[0][0]']\n"
"\n"
" conv2_1_1x1_reduce/bn (BatchNo  (None, 55, 55, 64)  256         "
"['conv2_1_1x1_reduce[0][0]']\n"
" rmalization)\n"
"\n"
" activation_50 (Activation)     (None, 55, 55, 64)   0           "
"['conv2_1_1x1_reduce/bn[0][0]']\n"
"\n"
" conv2_1_3x3 (Conv2D)           (None, 55, 55, 64)   36864       "
"['activation_50[0][0]']\n"
"\n"
" conv2_1_3x3/bn (BatchNormaliza  (None, 55, 55, 64)  256         "
"['conv2_1_3x3[0][0]']\n"
" tion)\n"
"\n"
" activation_51 (Activation)     (None, 55, 55, 64)   0           "
"['conv2_1_3x3/bn[0][0]']\n"
"\n"
" conv2_1_1x1_increase (Conv2D)  (None, 55, 55, 256)  16384       "
"['activation_51[0][0]']\n"
"\n"
" conv2_1_1x1_proj (Conv2D)      (None, 55, 55, 256)  16384       "
"['max_pooling2d_1[0][0]']\n"
"\n"
" conv2_1_1x1_increase/bn (Batch  (None, 55, 55, 256)  1024       "
"['conv2_1_1x1_increase[0][0]']\n"
" Normalization)\n"
"\n"
" conv2_1_1x1_proj/bn (BatchNorm  (None, 55, 55, 256)  1024       "
"['conv2_1_1x1_proj[0][0]']\n"
" alization)\n"
"\n"
" add_16 (Add)                   (None, 55, 55, 256)  0           "
"['conv2_1_1x1_increase/bn[0][0]',\n"
"                                  'conv2_1_1x1_proj/bn[0][0]']\n"
"\n"
" activation_52 (Activation)     (None, 55, 55, 256)  0           "
"['add_16[0][0]']\n"
"\n"
" conv2_2_1x1_reduce (Conv2D)    (None, 55, 55, 64)   16384       "
"['activation_52[0][0]']\n"
"\n"
" conv2_2_1x1_reduce/bn (BatchNo  (None, 55, 55, 64)  256         "
"['conv2_2_1x1_reduce[0][0]']\n"
" rmalization)\n"
"\n"
" activation_53 (Activation)     (None, 55, 55, 64)   0           "
"['conv2_2_1x1_reduce/bn[0][0]']\n"
"\n"
" conv2_2_3x3 (Conv2D)           (None, 55, 55, 64)   36864       "
"['activation_53[0][0]']\n"
"\n"
" conv2_2_3x3/bn (BatchNormaliza  (None, 55, 55, 64)  256         "
"['conv2_2_3x3[0][0]']\n"
" tion)\n"
"\n"
" activation_54 (Activation)     (None, 55, 55, 64)   0           "
"['conv2_2_3x3/bn[0][0]']\n"
"\n"
" conv2_2_1x1_increase (Conv2D)  (None, 55, 55, 256)  16384       "
"['activation_54[0][0]']\n"
"\n"
" conv2_2_1x1_increase/bn (Batch  (None, 55, 55, 256)  1024       "
"['conv2_2_1x1_increase[0][0]']\n"
" Normalization)\n"
"\n"
" add_17 (Add)                   (None, 55, 55, 256)  0           "
"['conv2_2_1x1_increase/bn[0][0]',\n"
"                                  'activation_52[0][0]']\n"
"\n"
" activation_55 (Activation)     (None, 55, 55, 256)  0           "
"['add_17[0][0]']\n"
"\n"
" conv2_3_1x1_reduce (Conv2D)    (None, 55, 55, 64)   16384       "
"['activation_55[0][0]']\n"
"\n"
" conv2_3_1x1_reduce/bn (BatchNo  (None, 55, 55, 64)  256         "
"['conv2_3_1x1_reduce[0][0]']\n"
" rmalization)\n"
"\n"
" activation_56 (Activation)     (None, 55, 55, 64)   0           "
"['conv2_3_1x1_reduce/bn[0][0]']\n"
"\n"
" conv2_3_3x3 (Conv2D)           (None, 55, 55, 64)   36864       "
"['activation_56[0][0]']\n"
"\n"
" conv2_3_3x3/bn (BatchNormaliza  (None, 55, 55, 64)  256         "
"['conv2_3_3x3[0][0]']\n"
" tion)\n"
"\n"
" activation_57 (Activation)     (None, 55, 55, 64)   0           "
"['conv2_3_3x3/bn[0][0]']\n"
"\n"
" conv2_3_1x1_increase (Conv2D)  (None, 55, 55, 256)  16384       "
"['activation_57[0][0]']\n"
"\n"
" conv2_3_1x1_increase/bn (Batch  (None, 55, 55, 256)  1024       "
"['conv2_3_1x1_increase[0][0]']\n"
" Normalization)\n"
"\n"
" add_18 (Add)                   (None, 55, 55, 256)  0           "
"['conv2_3_1x1_increase/bn[0][0]',\n"
"                                  'activation_55[0][0]']\n"
"\n"
" activation_58 (Activation)     (None, 55, 55, 256)  0           "
"['add_18[0][0]']\n"
"\n"
" conv3_1_1x1_reduce (Conv2D)    (None, 28, 28, 128)  32768       "
"['activation_58[0][0]']\n"
"\n"
" conv3_1_1x1_reduce/bn (BatchNo  (None, 28, 28, 128)  512        "
"['conv3_1_1x1_reduce[0][0]']\n"
" rmalization)\n"
"\n"
" activation_59 (Activation)     (None, 28, 28, 128)  0           "
"['conv3_1_1x1_reduce/bn[0][0]']\n"
"\n"
" conv3_1_3x3 (Conv2D)           (None, 28, 28, 128)  147456      "
"['activation_59[0][0]']\n"
"\n"
" conv3_1_3x3/bn (BatchNormaliza  (None, 28, 28, 128)  512        "
"['conv3_1_3x3[0][0]']\n"
" tion)\n"
"\n"
" activation_60 (Activation)     (None, 28, 28, 128)  0           "
"['conv3_1_3x3/bn[0][0]']\n"
"\n"
" conv3_1_1x1_increase (Conv2D)  (None, 28, 28, 512)  65536       "
"['activation_60[0][0]']\n"
"\n"
" conv3_1_1x1_proj (Conv2D)      (None, 28, 28, 512)  131072      "
"['activation_58[0][0]']\n"
"\n"
" conv3_1_1x1_increase/bn (Batch  (None, 28, 28, 512)  2048       "
"['conv3_1_1x1_increase[0][0]']\n"
" Normalization)\n"
"\n"
" conv3_1_1x1_proj/bn (BatchNorm  (None, 28, 28, 512)  2048       "
"['conv3_1_1x1_proj[0][0]']\n"
" alization)\n"
"\n"
" add_19 (Add)                   (None, 28, 28, 512)  0           "
"['conv3_1_1x1_increase/bn[0][0]',\n"
"                                  'conv3_1_1x1_proj/bn[0][0]']\n"
"\n"
" activation_61 (Activation)     (None, 28, 28, 512)  0           "
"['add_19[0][0]']\n"
"\n"
" conv3_2_1x1_reduce (Conv2D)    (None, 28, 28, 128)  65536       "
"['activation_61[0][0]']\n"
"\n"
" conv3_2_1x1_reduce/bn (BatchNo  (None, 28, 28, 128)  512        "
"['conv3_2_1x1_reduce[0][0]']\n"
" rmalization)\n"
"\n"
" activation_62 (Activation)     (None, 28, 28, 128)  0           "
"['conv3_2_1x1_reduce/bn[0][0]']\n"
"\n"
" conv3_2_3x3 (Conv2D)           (None, 28, 28, 128)  147456      "
"['activation_62[0][0]']\n"
"\n"
" conv3_2_3x3/bn (BatchNormaliza  (None, 28, 28, 128)  512        "
"['conv3_2_3x3[0][0]']\n"
" tion)\n"
"\n"
" activation_63 (Activation)     (None, 28, 28, 128)  0           "
"['conv3_2_3x3/bn[0][0]']\n"
"\n"
" conv3_2_1x1_increase (Conv2D)  (None, 28, 28, 512)  65536       "
"['activation_63[0][0]']\n"
"\n"
" conv3_2_1x1_increase/bn (Batch  (None, 28, 28, 512)  2048       "
"['conv3_2_1x1_increase[0][0]']\n"
" Normalization)\n"
"\n"
" add_20 (Add)                   (None, 28, 28, 512)  0           "
"['conv3_2_1x1_increase/bn[0][0]',\n"
"                                  'activation_61[0][0]']\n"
"\n"
" activation_64 (Activation)     (None, 28, 28, 512)  0           "
"['add_20[0][0]']\n"
"\n"
" conv3_3_1x1_reduce (Conv2D)    (None, 28, 28, 128)  65536       "
"['activation_64[0][0]']\n"
"\n"
" conv3_3_1x1_reduce/bn (BatchNo  (None, 28, 28, 128)  512        "
"['conv3_3_1x1_reduce[0][0]']\n"
" rmalization)\n"
"\n"
" activation_65 (Activation)     (None, 28, 28, 128)  0           "
"['conv3_3_1x1_reduce/bn[0][0]']\n"
"\n"
" conv3_3_3x3 (Conv2D)           (None, 28, 28, 128)  147456      "
"['activation_65[0][0]']\n"
"\n"
" conv3_3_3x3/bn (BatchNormaliza  (None, 28, 28, 128)  512        "
"['conv3_3_3x3[0][0]']\n"
" tion)\n"
"\n"
" activation_66 (Activation)     (None, 28, 28, 128)  0           "
"['conv3_3_3x3/bn[0][0]']\n"
"\n"
" conv3_3_1x1_increase (Conv2D)  (None, 28, 28, 512)  65536       "
"['activation_66[0][0]']\n"
"\n"
" conv3_3_1x1_increase/bn (Batch  (None, 28, 28, 512)  2048       "
"['conv3_3_1x1_increase[0][0]']\n"
" Normalization)\n"
"\n"
" add_21 (Add)                   (None, 28, 28, 512)  0           "
"['conv3_3_1x1_increase/bn[0][0]',\n"
"                                  'activation_64[0][0]']\n"
"\n"
" activation_67 (Activation)     (None, 28, 28, 512)  0           "
"['add_21[0][0]']\n"
"\n"
" conv3_4_1x1_reduce (Conv2D)    (None, 28, 28, 128)  65536       "
"['activation_67[0][0]']\n"
"\n"
" conv3_4_1x1_reduce/bn (BatchNo  (None, 28, 28, 128)  512        "
"['conv3_4_1x1_reduce[0][0]']\n"
" rmalization)\n"
"\n"
" activation_68 (Activation)     (None, 28, 28, 128)  0           "
"['conv3_4_1x1_reduce/bn[0][0]']\n"
"\n"
" conv3_4_3x3 (Conv2D)           (None, 28, 28, 128)  147456      "
"['activation_68[0][0]']\n"
"\n"
" conv3_4_3x3/bn (BatchNormaliza  (None, 28, 28, 128)  512        "
"['conv3_4_3x3[0][0]']\n"
" tion)\n"
"\n"
" activation_69 (Activation)     (None, 28, 28, 128)  0           "
"['conv3_4_3x3/bn[0][0]']\n"
"\n"
" conv3_4_1x1_increase (Conv2D)  (None, 28, 28, 512)  65536       "
"['activation_69[0][0]']\n"
"\n"
" conv3_4_1x1_increase/bn (Batch  (None, 28, 28, 512)  2048       "
"['conv3_4_1x1_increase[0][0]']\n"
" Normalization)\n"
"\n"
" add_22 (Add)                   (None, 28, 28, 512)  0           "
"['conv3_4_1x1_increase/bn[0][0]',\n"
"                                  'activation_67[0][0]']\n"
"\n"
" activation_70 (Activation)     (None, 28, 28, 512)  0           "
"['add_22[0][0]']\n"
"\n"
" conv4_1_1x1_reduce (Conv2D)    (None, 14, 14, 256)  131072      "
"['activation_70[0][0]']\n"
"\n"
" conv4_1_1x1_reduce/bn (BatchNo  (None, 14, 14, 256)  1024       "
"['conv4_1_1x1_reduce[0][0]']\n"
" rmalization)\n"
"\n"
" activation_71 (Activation)     (None, 14, 14, 256)  0           "
"['conv4_1_1x1_reduce/bn[0][0]']\n"
"\n"
" conv4_1_3x3 (Conv2D)           (None, 14, 14, 256)  589824      "
"['activation_71[0][0]']\n"
"\n"
" conv4_1_3x3/bn (BatchNormaliza  (None, 14, 14, 256)  1024       "
"['conv4_1_3x3[0][0]']\n"
" tion)\n"
"\n"
" activation_72 (Activation)     (None, 14, 14, 256)  0           "
"['conv4_1_3x3/bn[0][0]']\n"
"\n"
" conv4_1_1x1_increase (Conv2D)  (None, 14, 14, 1024  262144      "
"['activation_72[0][0]']\n"
"                )\n"
"\n"
" conv4_1_1x1_proj (Conv2D)      (None, 14, 14, 1024  524288      "
"['activation_70[0][0]']\n"
"                )\n"
"\n"
" conv4_1_1x1_increase/bn (Batch  (None, 14, 14, 1024  4096       "
"['conv4_1_1x1_increase[0][0]']\n"
" Normalization)                 )\n"
"\n"
" conv4_1_1x1_proj/bn (BatchNorm  (None, 14, 14, 1024  4096       "
"['conv4_1_1x1_proj[0][0]']\n"
" alization)                     )\n"
"\n"
" add_23 (Add)                   (None, 14, 14, 1024  0           "
"['conv4_1_1x1_increase/bn[0][0]',\n"
"                )                                 "
"'conv4_1_1x1_proj/bn[0][0]']\n"
"\n"
" activation_73 (Activation)     (None, 14, 14, 1024  0           "
"['add_23[0][0]']\n"
"                )\n"
"\n"
" conv4_2_1x1_reduce (Conv2D)    (None, 14, 14, 256)  262144      "
"['activation_73[0][0]']\n"
"\n"
" conv4_2_1x1_reduce/bn (BatchNo  (None, 14, 14, 256)  1024       "
"['conv4_2_1x1_reduce[0][0]']\n"
" rmalization)\n"
"\n"
" activation_74 (Activation)     (None, 14, 14, 256)  0           "
"['conv4_2_1x1_reduce/bn[0][0]']\n"
"\n"
" conv4_2_3x3 (Conv2D)           (None, 14, 14, 256)  589824      "
"['activation_74[0][0]']\n"
"\n"
" conv4_2_3x3/bn (BatchNormaliza  (None, 14, 14, 256)  1024       "
"['conv4_2_3x3[0][0]']\n"
" tion)\n"
"\n"
" activation_75 (Activation)     (None, 14, 14, 256)  0           "
"['conv4_2_3x3/bn[0][0]']\n"
"\n"
" conv4_2_1x1_increase (Conv2D)  (None, 14, 14, 1024  262144      "
"['activation_75[0][0]']\n"
"                )\n"
"\n"
" conv4_2_1x1_increase/bn (Batch  (None, 14, 14, 1024  4096       "
"['conv4_2_1x1_increase[0][0]']\n"
" Normalization)                 )\n"
"\n"
" add_24 (Add)                   (None, 14, 14, 1024  0           "
"['conv4_2_1x1_increase/bn[0][0]',\n"
"                )                                 'activation_73[0][0]']\n"
"\n"
" activation_76 (Activation)     (None, 14, 14, 1024  0           "
"['add_24[0][0]']\n"
"                )\n"
"\n"
" conv4_3_1x1_reduce (Conv2D)    (None, 14, 14, 256)  262144      "
"['activation_76[0][0]']\n"
"\n"
" conv4_3_1x1_reduce/bn (BatchNo  (None, 14, 14, 256)  1024       "
"['conv4_3_1x1_reduce[0][0]']\n"
" rmalization)\n"
"\n"
" activation_77 (Activation)     (None, 14, 14, 256)  0           "
"['conv4_3_1x1_reduce/bn[0][0]']\n"
"\n"
" conv4_3_3x3 (Conv2D)           (None, 14, 14, 256)  589824      "
"['activation_77[0][0]']\n"
"\n"
" conv4_3_3x3/bn (BatchNormaliza  (None, 14, 14, 256)  1024       "
"['conv4_3_3x3[0][0]']\n"
" tion)\n"
"\n"
" activation_78 (Activation)     (None, 14, 14, 256)  0           "
"['conv4_3_3x3/bn[0][0]']\n"
"\n"
" conv4_3_1x1_increase (Conv2D)  (None, 14, 14, 1024  262144      "
"['activation_78[0][0]']\n"
"                )\n"
"\n"
" conv4_3_1x1_increase/bn (Batch  (None, 14, 14, 1024  4096       "
"['conv4_3_1x1_increase[0][0]']\n"
" Normalization)                 )\n"
"\n"
" add_25 (Add)                   (None, 14, 14, 1024  0           "
"['conv4_3_1x1_increase/bn[0][0]',\n"
"                )                                 'activation_76[0][0]']\n"
"\n"
" activation_79 (Activation)     (None, 14, 14, 1024  0           "
"['add_25[0][0]']\n"
"                )\n"
"\n"
" conv4_4_1x1_reduce (Conv2D)    (None, 14, 14, 256)  262144      "
"['activation_79[0][0]']\n"
"\n"
" conv4_4_1x1_reduce/bn (BatchNo  (None, 14, 14, 256)  1024       "
"['conv4_4_1x1_reduce[0][0]']\n"
" rmalization)\n"
"\n"
" activation_80 (Activation)     (None, 14, 14, 256)  0           "
"['conv4_4_1x1_reduce/bn[0][0]']\n"
"\n"
" conv4_4_3x3 (Conv2D)           (None, 14, 14, 256)  589824      "
"['activation_80[0][0]']\n"
"\n"
" conv4_4_3x3/bn (BatchNormaliza  (None, 14, 14, 256)  1024       "
"['conv4_4_3x3[0][0]']\n"
" tion)\n"
"\n"
" activation_81 (Activation)     (None, 14, 14, 256)  0           "
"['conv4_4_3x3/bn[0][0]']\n"
"\n"
" conv4_4_1x1_increase (Conv2D)  (None, 14, 14, 1024  262144      "
"['activation_81[0][0]']\n"
"                )\n"
"\n"
" conv4_4_1x1_increase/bn (Batch  (None, 14, 14, 1024  4096       "
"['conv4_4_1x1_increase[0][0]']\n"
" Normalization)                 )\n"
"\n"
" add_26 (Add)                   (None, 14, 14, 1024  0           "
"['conv4_4_1x1_increase/bn[0][0]',\n"
"                )                                 'activation_79[0][0]']\n"
"\n"
" activation_82 (Activation)     (None, 14, 14, 1024  0           "
"['add_26[0][0]']\n"
"                )\n"
"\n"
" conv4_5_1x1_reduce (Conv2D)    (None, 14, 14, 256)  262144      "
"['activation_82[0][0]']\n"
"\n"
" conv4_5_1x1_reduce/bn (BatchNo  (None, 14, 14, 256)  1024       "
"['conv4_5_1x1_reduce[0][0]']\n"
" rmalization)\n"
"\n"
" activation_83 (Activation)     (None, 14, 14, 256)  0           "
"['conv4_5_1x1_reduce/bn[0][0]']\n"
"\n"
" conv4_5_3x3 (Conv2D)           (None, 14, 14, 256)  589824      "
"['activation_83[0][0]']\n"
"\n"
" conv4_5_3x3/bn (BatchNormaliza  (None, 14, 14, 256)  1024       "
"['conv4_5_3x3[0][0]']\n"
" tion)\n"
"\n"
" activation_84 (Activation)     (None, 14, 14, 256)  0           "
"['conv4_5_3x3/bn[0][0]']\n"
"\n"
" conv4_5_1x1_increase (Conv2D)  (None, 14, 14, 1024  262144      "
"['activation_84[0][0]']\n"
"                )\n"
"\n"
" conv4_5_1x1_increase/bn (Batch  (None, 14, 14, 1024  4096       "
"['conv4_5_1x1_increase[0][0]']\n"
" Normalization)                 )\n"
"\n"
" add_27 (Add)                   (None, 14, 14, 1024  0           "
"['conv4_5_1x1_increase/bn[0][0]',\n"
"                )                                 'activation_82[0][0]']\n"
"\n"
" activation_85 (Activation)     (None, 14, 14, 1024  0           "
"['add_27[0][0]']\n"
"                )\n"
"\n"
" conv4_6_1x1_reduce (Conv2D)    (None, 14, 14, 256)  262144      "
"['activation_85[0][0]']\n"
"\n"
" conv4_6_1x1_reduce/bn (BatchNo  (None, 14, 14, 256)  1024       "
"['conv4_6_1x1_reduce[0][0]']\n"
" rmalization)\n"
"\n"
" activation_86 (Activation)     (None, 14, 14, 256)  0           "
"['conv4_6_1x1_reduce/bn[0][0]']\n"
"\n"
" conv4_6_3x3 (Conv2D)           (None, 14, 14, 256)  589824      "
"['activation_86[0][0]']\n"
"\n"
" conv4_6_3x3/bn (BatchNormaliza  (None, 14, 14, 256)  1024       "
"['conv4_6_3x3[0][0]']\n"
" tion)\n"
"\n"
" activation_87 (Activation)     (None, 14, 14, 256)  0           "
"['conv4_6_3x3/bn[0][0]']\n"
"\n"
" conv4_6_1x1_increase (Conv2D)  (None, 14, 14, 1024  262144      "
"['activation_87[0][0]']\n"
"                )\n"
"\n"
" conv4_6_1x1_increase/bn (Batch  (None, 14, 14, 1024  4096       "
"['conv4_6_1x1_increase[0][0]']\n"
" Normalization)                 )\n"
"\n"
" add_28 (Add)                   (None, 14, 14, 1024  0           "
"['conv4_6_1x1_increase/bn[0][0]',\n"
"                )                                 'activation_85[0][0]']\n"
"\n"
" activation_88 (Activation)     (None, 14, 14, 1024  0           "
"['add_28[0][0]']\n"
"                )\n"
"\n"
" conv5_1_1x1_reduce (Conv2D)    (None, 7, 7, 512)    524288      "
"['activation_88[0][0]']\n"
"\n"
" conv5_1_1x1_reduce/bn (BatchNo  (None, 7, 7, 512)   2048        "
"['conv5_1_1x1_reduce[0][0]']\n"
" rmalization)\n"
"\n"
" activation_89 (Activation)     (None, 7, 7, 512)    0           "
"['conv5_1_1x1_reduce/bn[0][0]']\n"
"\n"
" conv5_1_3x3 (Conv2D)           (None, 7, 7, 512)    2359296     "
"['activation_89[0][0]']\n"
"\n"
" conv5_1_3x3/bn (BatchNormaliza  (None, 7, 7, 512)   2048        "
"['conv5_1_3x3[0][0]']\n"
" tion)\n"
"\n"
" activation_90 (Activation)     (None, 7, 7, 512)    0           "
"['conv5_1_3x3/bn[0][0]']\n"
"\n"
" conv5_1_1x1_increase (Conv2D)  (None, 7, 7, 2048)   1048576     "
"['activation_90[0][0]']\n"
"\n"
" conv5_1_1x1_proj (Conv2D)      (None, 7, 7, 2048)   2097152     "
"['activation_88[0][0]']\n"
"\n"
" conv5_1_1x1_increase/bn (Batch  (None, 7, 7, 2048)  8192        "
"['conv5_1_1x1_increase[0][0]']\n"
" Normalization)\n"
"\n"
" conv5_1_1x1_proj/bn (BatchNorm  (None, 7, 7, 2048)  8192        "
"['conv5_1_1x1_proj[0][0]']\n"
" alization)\n"
"\n"
" add_29 (Add)                   (None, 7, 7, 2048)   0           "
"['conv5_1_1x1_increase/bn[0][0]',\n"
"                                  'conv5_1_1x1_proj/bn[0][0]']\n"
"\n"
" activation_91 (Activation)     (None, 7, 7, 2048)   0           "
"['add_29[0][0]']\n"
"\n"
" conv5_2_1x1_reduce (Conv2D)    (None, 7, 7, 512)    1048576     "
"['activation_91[0][0]']\n"
"\n"
" conv5_2_1x1_reduce/bn (BatchNo  (None, 7, 7, 512)   2048        "
"['conv5_2_1x1_reduce[0][0]']\n"
" rmalization)\n"
"\n"
" activation_92 (Activation)     (None, 7, 7, 512)    0           "
"['conv5_2_1x1_reduce/bn[0][0]']\n"
"\n"
" conv5_2_3x3 (Conv2D)           (None, 7, 7, 512)    2359296     "
"['activation_92[0][0]']\n"
"\n"
" conv5_2_3x3/bn (BatchNormaliza  (None, 7, 7, 512)   2048        "
"['conv5_2_3x3[0][0]']\n"
" tion)\n"
"\n"
" activation_93 (Activation)     (None, 7, 7, 512)    0           "
"['conv5_2_3x3/bn[0][0]']\n"
"\n"
" conv5_2_1x1_increase (Conv2D)  (None, 7, 7, 2048)   1048576     "
"['activation_93[0][0]']\n"
"\n"
" conv5_2_1x1_increase/bn (Batch  (None, 7, 7, 2048)  8192        "
"['conv5_2_1x1_increase[0][0]']\n"
" Normalization)\n"
"\n"
" add_30 (Add)                   (None, 7, 7, 2048)   0           "
"['conv5_2_1x1_increase/bn[0][0]',\n"
"                                  'activation_91[0][0]']\n"
"\n"
" activation_94 (Activation)     (None, 7, 7, 2048)   0           "
"['add_30[0][0]']\n"
"\n"
" conv5_3_1x1_reduce (Conv2D)    (None, 7, 7, 512)    1048576     "
"['activation_94[0][0]']\n"
"\n"
" conv5_3_1x1_reduce/bn (BatchNo  (None, 7, 7, 512)   2048        "
"['conv5_3_1x1_reduce[0][0]']\n"
" rmalization)\n"
"\n"
" activation_95 (Activation)     (None, 7, 7, 512)    0           "
"['conv5_3_1x1_reduce/bn[0][0]']\n"
"\n"
" conv5_3_3x3 (Conv2D)           (None, 7, 7, 512)    2359296     "
"['activation_95[0][0]']\n"
"\n"
" conv5_3_3x3/bn (BatchNormaliza  (None, 7, 7, 512)   2048        "
"['conv5_3_3x3[0][0]']\n"
" tion)\n"
"\n"
" activation_96 (Activation)     (None, 7, 7, 512)    0           "
"['conv5_3_3x3/bn[0][0]']\n"
"\n"
" conv5_3_1x1_increase (Conv2D)  (None, 7, 7, 2048)   1048576     "
"['activation_96[0][0]']\n"
"\n"
" conv5_3_1x1_increase/bn (Batch  (None, 7, 7, 2048)  8192        "
"['conv5_3_1x1_increase[0][0]']\n"
" Normalization)\n"
"\n"
" add_31 (Add)                   (None, 7, 7, 2048)   0           "
"['conv5_3_1x1_increase/bn[0][0]',\n"
"                                  'activation_94[0][0]']\n"
"\n"
" activation_97 (Activation)     (None, 7, 7, 2048)   0           "
"['add_31[0][0]']\n"
"\n"
" avg_pool (AveragePooling2D)    (None, 1, 1, 2048)   0           "
"['activation_97[0][0]']\n"
"\n"
" global_average_pooling2d_1 (Gl  (None, 2048)        0           "
"['avg_pool[0][0]']\n"
" obalAveragePooling2D)\n"
"\n"
" gaussian_noise_1 (GaussianNois  (None, 2048)        0           "
"['global_average_pooling2d_1[0][0\n"
" e)                                                              ]']\n"
"\n"
" dense_x (Dense)                (None, 512)          1049088     "
"['gaussian_noise_1[0][0]']\n"
"\n"
" dropout_1 (Dropout)            (None, 512)          0           "
"['dense_x[0][0]']\n"
"\n"
" dense_1 (Dense)                (None, 7)            3591        "
"['dropout_1[0][0]']\n"
"\n"
"=================================================================================================="
"\n"
"Total params: 24,613,831\n"
"Trainable params: 24,560,711\n"
"Non-trainable params: 53,120\n"
"__________________________________________________________________________________________________"
"\n"
"--- Время выполнения: 2.222 сек. ---\n"
"\n"
"True"
msgstr ""
…
"    runtime = True, run = True\n"
")"

#: 47fda7b74a3e4043b5d9fd6b60eddb03
#: oceanai.modules.lab.video.Video.load_video_model_nn:33 of
msgid ""
"[2022-10-27 14:46:11] Формирование нейросетевой архитектуры для получения"
" оценок по нейросетевым признакам (видео модальность) ...\n"
"\n"
"Model: \"model\"\n"
"_________________________________________________________________\n"
" Layer (type)                Output Shape              Param #\n"
"=================================================================\n"
" input_1 (InputLayer)        [(None, 10, 512)]         0\n"
"\n"
" lstm (LSTM)                 (None, 1024)              6295552\n"
"\n"
" dropout (Dropout)           (None, 1024)              0\n"
"\n"
" dense (Dense)               (None, 5)                 5125\n"
"\n"
" activation (Activation)     (None, 5)                 0\n"
"\n"
"=================================================================\n"
"Total params: 6,300,677\n"
"Trainable params: 6,300,677\n"
"Non-trainable params: 0\n"
"_________________________________________________________________\n"
"--- Время выполнения: 2.018 сек. ---\n"
"\n"
"True"
msgstr ""
"[2022-10-27 14:46:11] Formation of a neural network architecture for "
"obtaining scores by deep features (video modality) ...\n"
"\n"
"Model: \"model\"\n"
"_________________________________________________________________\n"
" Layer (type)                Output Shape              Param #\n"
"=================================================================\n"
" input_1 (InputLayer)        [(None, 10, 512)]         0\n"
"\n"
" lstm (LSTM)                 (None, 1024)              6295552\n"
"\n"
" dropout (Dropout)           (None, 1024)              0\n"
"\n"
" dense (Dense)               (None, 5)                 5125\n"
"\n"
" activation (Activation)     (None, 5)                 0\n"
"\n"
"=================================================================\n"
"Total params: 6,300,677\n"
"Trainable params: 6,300,677\n"
"Non-trainable params: 0\n"
"_________________________________________________________________\n"
"--- Runtime: 2.018 sec. ---\n"
"\n"
"True"

#: 26f4600bd4eb448195df6d6c9f50c039
#: oceanai.modules.lab.video.Video.load_video_model_nn:64 of
msgid ""
"from oceanai.modules.lab.video import Video\n"
…
